notebook/02-intermediate/convolutional_neural_network/model.ckpt (torch, 120785 bytes, 14 tensors)

layer1.0.weight f4 [16, 1, 5, 5]
00000000: f5e7 873d 693c 3bbd 6336 1f3e 6e24 963d
00000010: 7420 f6bd ecd4 af3d 7a42 eb3c c2d9 e83d
00000020: 7f98 e3bd 185e 89be f236 d9bd dd87 bf3d
00000030: 9d95 00be 02da 8dbe ea81 aa3d 6ad1 d83d
00000040: 6fa5 b2bd 6660 1ebe 265c 6dbd b3b5 6a3d
00000050: 3331 0ebe 7e50 24be c3fa 01be a877 d73c
00000060: 343d 513d 66cd 99be a406 04be d3c1 f5bd
00000070: 654f a73d 0fd7 243d 99c6 48bd 08a9 e6bc
00000080: affe 32be 673d 8ebe d687 5abe 9ef6 3b3e
00000090: d35a 5d3d 4518 4bbd 8f7c f03d 8b8f b5bd
000000a0: fdd0 423d 61d3 e7bd 3b58 9d3d a632 4abd
000000b0: cc05 183e 2008 1abe 8063 19bd cf96 133e
000000c0: 8c3d 103e f5bc acbd b63c 32bd 3565 313c
000000d0: a65b 34bd 9551 0f3e f6ed 21be d3fa bcbd
000000e0: 11ef 51bc b663 24be bf07 0b3e 2b83 143e
000000f0: 8b73 ee3c da3d 123e 25af 62be 395f 1e3d
00000100: 8059 493e 5ce0 173e 11bd 3fbe 1649 e3bd
00000110: 3798 6ebe 3541 b0bd 6d36 653d 0ddb 2a3e
00000120: e2ab e3bd 72f9 f73d ae95 f2bd c61f fd3c
00000130: aa59 4e3e f31c 89bc efb2 02be c402 61be
00000140: e20f 3abc 1510 ec3d ec56 2b3e 8111 89be
00000150: 4cc8 f0bd a8fa e7bd 07af d23d 6639 423d
00000160: bd34 93bc 12af 14be 76b1 e83d 0e06 9c3d
00000170: 3cbd b9bd ad9e ff3d 606b 52be 072b dc3d
00000180: 5f18 35bd 0d20 d33d 8c53 c5bd 0d04 8d3d
00000190: 2f32 de3d 9878 1d3e 88a8 c0bd 2b4a 143c
000001a0: b8ef 973c 022a 26be a96e b93c 49a1 083e
000001b0: e4ec d93d fa3a e5bc d472 3fbe 4b5f 85bd
000001c0: 6e13 323d f7da 533e 1d73 b0bd e076 bb3d
000001d0: b05f 59bd b87d 6fbe 0f55 00be ae24 0fbe
000001e0: 53ce f63d 7337 8a3d d287 abbb 161f f83d
000001f0: bb9c 3f3e 58e2 57be 0008 75be 6e2e c2bd
00000200: 43ca 96bd 5bed 9fbd 51aa 503d 8f48 243d
00000210: ec9f bbbd a8ad 21be 0854 aabd 10a2 033e
00000220: 82d5 2bbd 1861 103d 349a edbd 2f3f 5fbe
00000230: 8016 f73d aa79 373e 2575 d63d e56e 853c
00000240: 3e79 19be 1985 ee3d c46f 163e 5c76 b3bd
00000250: 9386 613e d463 f8bc 0c13 b83d 0b07 a8bd
00000260: a600 5f3b 9a7f 28bd 8cf0 9dbd 35ed aa3d
00000270: f267 c53d b440 1f3e bd28 483e 1408 fd3d
00000280: ed4e 40be 03bd 5abd 82fc f0bd 8603 74be
00000290: 5e98 24be d2de 3abd ce26 76bc e37d 4bbe
000002a0: b240 a6bd ae6a 50bd bbb2 80bd 7486 3cbe
000002b0: 4465 65bd 1090 373e 230f f63d 403b c63c
000002c0: ea09 b23d 0b85 f93d 75d4 f83d 7154 ffbd
000002d0: 1b7a 88bd 004e 043e cd70 b73b 1272 863d
000002e0: 5c38 593d 4fa3 463d b6fd 253e 5b25 0fbe
000002f0: 7c8c 5b3d 7bd9 83bd 51ba 1a3d 9b65 913d
00000300: 1bf5 21be 6dec c73d 14aa 85be d404 183e
00000310: ef8e 573d bbc1 263c 18fe cbbd be29 d3be
00000320: 38ce e83d 0217 28bd 7f81 cbbb 9fb5 d63c
00000330: ad53 323d 2956 703d 1cba 923d 735d 1fbe
00000340: 8555 d0bd fb95 10be 4ec4 84be d700 1bbe
00000350: 8a93 a8bc e8dc 86bd 48aa 0abe ed20 28bd
00000360: 700d aa3c fc6f 3c3d 4ff3 a23b daae 443d
00000370: 887b 103e ec68 0bbe 9eec 21bd cd72 1a3d
00000380: 3673 303e f413 8c3b 9c67 f23d a819 5abe
00000390: 7589 a2bc 0b46 cf3d 8916 bc3d 4441 df3d
000003a0: b35d 1abe fa14 80bd be6b 1e3e 4c85 5bbd
000003b0: a592 603e 1f84 1b3e a78d b83d 39ba cfbd
000003c0: 593e 85bd 0d1f f9bb aac9 f73d 7597 4ebe
000003d0: 687c f33c 1357 eabd 336a 59be ac31 ffbd
000003e0: a5bf b43d 6c0d 74bd 866e 36be 5c6e a2bd
000003f0: 583c 94bd e454 9eba 2ff3 183d 5362 89be
0.06636039 -0.04571191 0.1554809 0.07331167 -0.12017909 0.085855335 0.028718222 0.11369659
-0.11113071 -0.268296 -0.10606183 0.09352086 -0.12557073 -0.2770539 0.083255604 0.105868176
-0.0872296 -0.1546646 -0.057949208 0.057302188 -0.13885956 -0.1604633 -0.12693314 0.026302174
0.05108376 -0.3003952 -0.12893158 -0.1199986 0.0816944 0.04024416 -0.049017522 -0.028156772
-0.17479967 -0.2778122 -0.2134088 0.18355796 0.054041695 -0.049583692 0.11742508 -0.08865269
0.047562588 -0.11319614 0.07682844 -0.04936471 0.14845961 -0.15042162 -0.037448406 0.14412998
0.14085978 -0.08434478 -0.04351493 0.010827352 -0.044032715 0.13995965 -0.15813431 -0.092275284
-0.0128133455 -0.16053662 0.13577174 0.14503162 0.02910783 0.14281407 -0.22137125 0.03866503
0.19663048 0.1483168 -0.18724467 -0.110979244 -0.23300253 -0.08606187 0.055960108 0.16685124
-0.111167684 0.12108125 -0.118449554 0.03089894 0.20151392 -0.016737437 -0.1276357 -0.21973711
-0.011356326 0.11526505 0.16732377 -0.26771167 -0.117569536 -0.11327106 0.1028729 0.04741802
-0.017969484 -0.14519909 0.11361973 0.07618342 -0.09069297 0.12481437 -0.20548773 0.10750394
-0.044212695 0.103088476 -0.09635076 0.06885538 0.108494155 0.15378034 -0.09407145 0.009050886
0.018546924 -0.16226962 0.022635775 0.13342775 0.106408864 -0.027982224 -0.18696147 -0.06512316
0.04347556 0.20688997 -0.08615706 0.09153533 -0.05306977 -0.23387802 -0.12532447 -0.13978836
0.12051072 0.06748857 -0.005234697 0.12115304 0.18712132 -0.21082437 -0.23928833 -0.09481512
-0.07362797 -0.07808944 0.050943676 0.04010826 -0.09161362 -0.15788901 -0.08316809 0.1285479
-0.041951664 0.035248846 -0.116016775 -0.21801446 0.120648384 0.17917505 0.10471562 0.01628823
-0.14987656 0.1164648 0.14691073 -0.0876281 0.22023992 -0.03032104 0.08988008 -0.08204468
0.0034027486 -0.041137315 -0.07711896 0.08346025 0.096389666 0.15552026 0.1954679 0.123550564
-0.18780108 -0.053402912 -0.11766912 -0.23829469 -0.16073748 -0.045622654 -0.0150239 -0.1987224
-0.081178084 -0.050882988 -0.0628409 -0.18410665 -0.056004778 0.17926049 0.12014606 0.024198174
0.08693297 0.12183579 0.12149898 -0.12467278 -0.06663915 0.1292038 0.0055981637 0.06564726
0.053032264 0.048495587 0.16210064 -0.13979094 0.053600773 -0.064379655 0.03777534 0.07099458
-0.15816157 0.097618915 -0.26106322 0.14845592 0.052626546 0.010178025 -0.09960574 -0.41242784
0.11367458 -0.041037567 -0.0062105055 0.02620965 0.04353683 0.05867592 0.07164404 -0.15562992
-0.101725616 -0.14119713 -0.2593102 -0.15137039 -0.020578165 -0.06585103 -0.1354152 -0.041047025
0.02075836 0.046005234 0.0049728523 0.048018314 0.14109623 -0.13614243 -0.039532296 0.03770714
0.1723145 0.0042748395 0.11836168 -0.2129885 -0.019840935 0.101207815 0.09183986 0.1090112
-0.15074806 -0.06254001 0.15470788 -0.05359392 0.2193094 0.15187119 0.09011393 -0.10142941
-0.065060325 -0.0076025785 0.12099011 -0.20174964 0.029722407 -0.11442389 -0.21231918 -0.12460646
0.08825616 -0.059583113 -0.17815599 -0.07931206 -0.07238072 -0.0012079743 0.037341293 -0.26832828

layer1.0.bias f4 [16]
00000000: fa00 c7bd f108 773c 3f03 14be fb04 52bc
00000010: 6dd3 44bd ccad 703e 68e4 edbd c004 fb3d
00000020: 5776 38bc 61f8 183d e47a 433e 717c 1e3d
00000030: 8cfc 863d eee7 c9bd 527e 5bbd 103d 31be
-0.09716983 0.015077815 -0.14454363 -0.01281857 -0.048053194 0.23503798 -0.11615831 0.12256765
-0.011258683 0.037346248 0.19089848 0.038692895 0.06591138 -0.0985869 -0.053587265 -0.1730845

layer1.1.weight f4 [16]
00000000: 2b4d a03f c6ca 933f d99e 8a3f 11c6 683f
00000010: e8cd 603f d3f1 883f 4882 8b3f cc14 623f
00000020: 22dc 8e3f 9c4f 5f3f 5c1c 873f f1ea 533f
00000030: 84f0 853f 9642 873f 95b4 6e3f 083e 593f
1.252355 1.1546257 1.0829726 0.90927225 0.8781419 1.0698799 1.0899134 0.88312984
1.1160929 0.8723085 1.055553 0.8278037 1.0464025 1.0567195 0.93244296 0.8486028

layer1.1.bias f4 [16]
00000000: 1510 26be 95da 58be 2300 eb3c 63f7 01be
00000010: 0027 7fbe 088a 31be 94d0 77be fc10 49be
00000020: 3dac 52be 16e2 22be d090 20be 93b0 3fbe
00000030: 1188 a9bd 16c4 d3bd c6a0 04bc 11a3 7dbe
-0.16217072 -0.21177132 0.028686589 -0.12692027 -0.24917221 -0.17337811 -0.2420066 -0.19635385
-0.20573516 -0.15906557 -0.15680242 -0.18719701 -0.08277906 -0.10340135 -0.008094972 -0.24769236

layer1.1.running_mean f4 [16]
00000000: 128a 53be fadf bcbd 28ef 33be 6c50 1abd
00000010: ea04 d2bc 770c 293e 4e3c 41be 12a2 fd3d
00000020: 55d3 9ebd cb50 aa3c d171 da3d 68ff 7f3d
00000030: 516f 93bb 2f66 fbbd 5818 8dbd 3f9f 28be
-0.20658138 -0.09222408 -0.175717 -0.037674353 -0.025637109 0.16508661 -0.1887066 0.12384428
-0.07755152 0.020790478 0.1066624 0.062499434 -0.004499354 -0.12275349 -0.06889409 -0.16466998

layer1.1.running_var f4 [16]
00000000: 560a 933d 182d 673d 4f7d 793c 60a5 4b3d
00000010: 4883 293c 717e 913d be8b 293d 0bc5 823d
00000020: 23e9 053d 4a19 813c d8f7 393d 9aef 623d
00000030: 9a54 983d ef6f 733c 27e2 a13c afe6 b73c
0.07179706 0.05643949 0.01522763 0.04971826 0.010346241 0.07104195 0.041393034 0.06385239
0.03269304 0.01575913 0.045402378 0.055404283 0.074380115 0.01485823 0.019761158 0.022448866

layer2.0.weight f4 [32, 16, 5, 5]
00000000: aa0c 9abc f98e cf3d 9c63 503d 613f 08bd
00000010: fef2 d0bb 4b76 9ebd 6f98 2e3d 6953 133e
00000020: c7b4 3a3c 2cd2 2f3d a388 553d d4bc 61bc
00000030: 689a 733d 3b80 f4ba d21c 293c 3c9d 57bc
00000040: 4dcd 4d3d 31ba dc3c dd5d ff3b e836 9abd
00000050: 641d 50bb 79e8 733c ae0b b7bc f3a9 31be
00000060: 00c8 c5bd 32da f0bc 848d 3ebd 6fca b8bb
00000070: 0801 813d 886e 543d b3b8 e53d 854c 673d
00000080: 0e57 cebd c39e d33b a4bc 46b9 d33e 853d
00000090: 0a5c 9c3c b8f4 d23d 3888 403d 08ea d1bd
000000a0: 8be3 62ba dd46 8cbc affd 583d c3be e73c
000000b0: 7e9f 7abc 47d3 c2bc f62b 6dbd 9f56 b4bc
000000c0: 8ee4 8cbd cd51 803c 3d19 813d 2148 98bd
000000d0: 3cbc fe3c 816f 6b3d b87e a4bb 2d0b 963d
000000e0: 5929 ee3c 20f3 973c fca9 323d 5aaa 233d
000000f0: 6f1a 21bd d28f 853d 5381 963a 76fa 8239
00000100: bab4 9dbd bfb7 343c b8a5 443c 99ae 16bd
00000110: d839 60bd 88f4 e63c 8b93 a9bd 1ce2 babc
00000120: 5490 84bb 3678 f53c 07b2 7c3d d630 e4bb
00000130: 5dff a63d 4b4e dbbb ece7 733c 0857 8b3d
00000140: fb9a 3ebc 6fe4 d6b9 31c0 903d 2e05 2cbc
00000150: c14d b93d 2f71 283d 8fcc 0dbc f630 433d
00000160: 7578 323d 9e9e 6e3d eb03 743c 46c1 823c
00000170: d27b 353d 76b8 353d 26e1 1cbc ee70 4f3d
00000180: 02eb 17bb 37f4 c63c 75ad 90bd 9724 9dbd
00000190: a7de cfb9 85a6 b8bd 1f8c 51bd 7da3 acbd
000001a0: ddd5 d03c 168d efbc 9261 b739 2f9f 95bd
000001b0: fbde cd3c a379 b3bb ea2a 4cbd 758e 663d
000001c0: b425 093d 49bb 42bd 7d0c 403d 3b82 923c
000001d0: b258 61bd 6882 b23d 91ad 813d c626 983c
000001e0: 55ac 48bd 2f2f 35bd 2589 923d f924 a43c
000001f0: f9ac 4cbd bdf8 8d3d bead e73c 0757 5a3d
00000200: b8af f43a 228d 89bb 235b ec3d d1e0 37bd
00000210: 4b2b 29bd c506 7dbd 4d86 783c 0385 0c3d
00000220: 48f2 05bd 7574 dfbb 4cc6 43bc 3b08 f1bc
00000230: 430d b1bc 824c df3b 82fa de3b 16ac 53bc
00000240: b928 863d db4b d9bc 9a06 54bd 89d3 8abd
00000250: 9dd8 68bd 1928 6e3c 8ce7 c2bd 1e98 fdbc
00000260: db1e e6bb 40d2 7a3c 99a2 543d def1 acbd
00000270: 133e 1bbd b501 9a3b 6098 1ebd c750 923d
00000280: 59f8 15bd c2a9 e23b ea75 713c 4ac0 87bd
00000290: ee9c e8bc c846 03bd 89e8 7dbd 7f0f 33bd
000002a0: c20e ed3c 624f 6e3c d058 0f3c 9ab1 74bd
000002b0: 3fa5 f0bd af41 2cbd 7b7a 1ebd c3f9 a2bb
000002c0: 578f 333c 5678 963d 5ad0 ec3c 097e d23c
000002d0: d68c d6bc b5cc b8bb 6f40 5b3d 3a7b 153d
000002e0: 099e ad3d 8033 8c3c f0df c2bc 6a48 05bd
000002f0: fb88 b1bc 57b9 36bc f5e9 e83c 4f8b 7fbb
00000300: 9dc7 b5bc 7ce4 2cbd ae65 443d b5c7 a6bc
00000310: 31f1 cc3c bcde d9bc d21f 373d f9cf 263d
00000320: 7437 9c3d 4a9e 3ebc ba34 423d 7930 a43d
00000330: d99d b93d 1a78 eebb fd3c 803c 5255 9f3d
00000340: 67a4 72bd b64e 21bd d86b 22bb 2272 5d3c
00000350: 1584 aa3d 5bdf 7dbb 602c 89bd 9f56 123d
00000360: ccea a9bc 0c76 a8bd 195c 4abb 540b a33d
00000370: fb66 6a3c 4233 b0bb 982a 31bc e900 e43b
00000380: ba8f cf3c 7887 063d 39d1 07bd b262 4dbd
00000390: bf11 85bd aa9f 0bbd f9e3 62bc 09de 7fbc
000003a0: 19b3 073d 7d84 9bbd 8c0c c8bc 800b 583d
000003b0: a24d 50bd 33ce 34bc a4b1 54bd a17b 27bd
000003c0: 9419 873b 50e9 63bb 5a13 443c 4cd3 babb
000003d0: 43c0 a5bd 011a 0ebc 8870 a1bd 50a4 c43c
000003e0: 8de8 f6bc 6a30 733d ed49 a5bc 15e9 c3bc
000003f0: b15a 3ebc 81ba c33d a863 863d 6381 8f3c
-0.018804867 0.10134692 0.050876245 -0.033263568 -0.006376623 -0.07737406 0.04262584 0.14387287
0.01139564 0.042925045 0.05213226 -0.01377793 0.059473425 -0.0018653938 0.010321813 -0.013160046
0.05024462 0.026944252 0.007793172 -0.07530004 -0.00317558 0.014886969 -0.022344436 -0.17349987
-0.096572876 -0.029400919 -0.04652168 -0.0056393663 0.06299025 0.051863223 0.11216869 0.05646946
-0.10075198 0.006458135 -0.00018953026 0.065061234 0.019086856 0.10300583 0.04700491 -0.10249716
-0.00086551224 -0.017123634 0.052976307 0.028289204 -0.015296815 -0.023782386 -0.057903253 -0.02201396
-0.06879531 0.015664006 0.06303642 -0.074356325 0.031095617 0.057479385 -0.005019989 0.0732635
0.02907245 0.018548548 0.04361914 0.03995738 -0.03933185 0.06521572 0.0011482633 0.0002498214
-0.077004865 0.011030137 0.012002401 -0.036787603 -0.054742664 0.028192773 -0.08280095 -0.022812895
-0.0040455256 0.029964548 0.061693218 -0.0069638295 0.081541754 -0.006692683 0.014886837 0.06803709
-0.01163363 -0.00040987457 0.070679076 -0.010499282 0.090480335 0.041123565 -0.008654728 0.047654115
0.043571908 0.058256738 0.014893512 0.0159613 0.044307537 0.04436537 -0.009575164 0.050644808
-0.0023180847 0.024286373 -0.07064334 -0.076729946 -0.00039648006 -0.09016136 -0.05115902 -0.084296204
0.025492603 -0.02924208 0.00034977176 -0.073057525 0.02513074 -0.0054771467 -0.049845614 0.0562882
0.033483222 -0.04754189 0.04688691 0.017884364 -0.055016227 0.08716279 0.06331933 0.018573176
-0.048992474 -0.04423445 0.071550645 0.020037161 -0.049969647 0.06932209 0.028281089 0.053305652
0.0018668091 -0.0041977325 0.115408204 -0.044892136 -0.041301053 -0.061774034 0.015168739 0.034306537
-0.03270176 -0.0068193027 -0.011949133 -0.02942287 -0.021612769 0.0068145404 0.006804765 -0.012919446
0.06550736 -0.026525429 -0.05176411 -0.067786284 -0.056847204 0.014535927 -0.0951682 -0.030956324
-0.007022721 0.015308917 0.051912878 -0.0844457 -0.037900995 0.0046999105 -0.038719535 0.07144313
-0.036613796 0.0069172094 0.014737586 -0.06628473 -0.028395142 -0.032049924 -0.06198934 -0.04371595
0.028937701 0.0145452935 0.008749202 -0.059739687 -0.11750268 -0.04205483 -0.038691025 -0.0049736216
0.010959468 0.07347171 0.028907944 0.025694864 -0.026190203 -0.0056396374 0.053528246 0.03649447
0.084774084 0.0171144 -0.023788422 -0.032539763 -0.021671763 -0.011152587 0.028431872 -0.0038992947
-0.02218991 -0.042210087 0.04794853 -0.0203589 0.025017353 -0.026595466 0.04470808 0.040725682
0.07627764 -0.011634419 0.047413565 0.08017058 0.0906331 -0.007277501 0.015654081 0.077799454
-0.059238818 -0.039381705 -0.0024783518 0.013515981 0.08325974 -0.0038737867 -0.06697917 0.03572714
-0.020741843 -0.08225641 -0.0030877648 0.07961145 0.014306779 -0.005377204 -0.010813378 0.0069581163
0.025337089 0.032844037 -0.033158515 -0.05014295 -0.064975254 -0.034087814 -0.013848298 -0.015616902
0.033129785 -0.075936295 -0.024420045 0.052745342 -0.050855286 -0.01103549 -0.051927224 -0.040889386
0.004122922 -0.0034776516 0.011967504 -0.005701458 -0.08093312 -0.008673192 -0.07882792 0.024004132
-0.030140186 0.059372343 -0.020176852 -0.023914853 -0.011618302 0.09557057 0.06561977 0.017517751

layer2.0.bias f4 [32]
00000000: eeb3 cabb 04e5 29bb 701d 2e3d 0f02 5b3c
00000010: 4821 5a3d 3f93 48bd f51f 99bc b73b 013d
00000020: 2ad1 3dbd 0b25 c5bc 53f0 063d fecc 39bd
00000030: ad58 23bd 99fb 8bba 6b2f f6bc 8233 3d3d
00000040: 5f38 d53c d385 a43c 8ee4 0a3d 600b 373d
00000050: 1a9f 99bc 6fe9 593d 65dd 06bd d85d d63c
00000060: e919 eb3c d661 493d 4a37 d53c 59a7 2ebd
00000070: 3cfd 18bc 9c77 31bd 8ad9 cdbc c850 70bc
-0.006186 -0.0025923857 0.042508543 0.01336719 0.053254396 -0.04896855 -0.018691996 0.03155109
-0.046342053 -0.024065515 0.032944035 -0.04536151 -0.03987949 -0.001067984 -0.030051908 0.0461917
0.026027856 0.020083344 0.033909373 0.044688582 -0.018752623 0.053201135 -0.032925982 0.026167795
0.028698878 0.04916557 0.02602734 -0.042640064 -0.0093377195 -0.04332696 -0.025128145 -0.014667697

layer2.1.weight f4 [32]
00000000: 691e 9a3f 4d9c 9e3f 0af5 a13f f4fd a53f
00000010: 6b07 9f3f 60e3 9f3f e5be 993f 59a8 993f
00000020: f5e9 a33f 858d a83f 72e1 933f 2078 993f
00000030: a3b6 a73f dda9 963f 2d5c 9f3f e8fd 9d3f
00000040: 45fe 9a3f ed73 a13f 5f6c a83f ba48 973f
00000050: 23df 9b3f a861 9f3f 05f8 943f 1f0b a33f
00000060: 22c9 a53f 6d1e 903f 044f a33f b46b 9b3f
00000070: 95ac a43f 998f a03f 244a aa3f b3e9 ae3f
1.204053 1.2391449 1.2652905 1.2968125 1.2424139 1.2491264 1.2011381 1.2004501
1.2805773 1.3168188 1.1553175 1.1989784 1.3102611 1.1770588 1.2450005 1.2343111
1.2108847 1.2613503 1.3158072 1.1819069 1.2177471 1.2451677 1.163819 1.2737769
1.2952006 1.1259285 1.2758489 1.2142243 1.2865168 1.2543823 1.3303876 1.3665069

layer2.1.bias f4 [32]
00000000: 06ae 1abe 68e3 f1bd 19be f0bd 86f8 ffbd
00000010: ce89 55bd 70f1 05be 2485 f0bd 795f a3bd
00000020: 68b4 06be 479a 6ebd b803 d4bd c0f2 f5bd
00000030: c60b 5cbe 190a bcbd 8388 45bb 3b74 76bd
00000040: 463e 05bd b4e8 39bd c5a5 c0bd 167e eabd
00000050: 2dc5 a9bd 9885 22be 69fe c7bd 7bb8 3fbd
00000060: 4fdd fbbd f2e9 77bd 1295 e7bd 2334 c8bd
00000070: e2f8 e7bd 1b4e a1bd c3c0 45be f2e1 40be
-0.15105447 -0.118109524 -0.11755008 -0.12498574 -0.052133374 -0.13080382 -0.117441446 -0.07977194
-0.13154757 -0.0582526 -0.10352272 -0.120091915 -0.21488866 -0.091816135 -0.0030141182 -0.06016944
-0.03253009 -0.04538794 -0.09406618 -0.1144983 -0.082895614 -0.15871274 -0.09765322 -0.046806794
-0.12298071 -0.060525842 -0.1130773 -0.09775569 -0.113267675 -0.078762256 -0.19311814 -0.18836191

layer2.1.running_mean f4 [32]
00000000: f81c 863e 8327 85bd 1a72 43bd d748 8d3d
00000010: 0896 663e 7979 863e 3281 3dbe a6ca b93d
00000020: 4a2f 20bf 0098 6dbd 5c22 eb3d 5567 d3bd
00000030: 2b53 083f d84d cabe 779a 913e 38d2 87be
00000040: e201 c03d 69ce 723f dc9e 453d 7a5a f83e
00000050: 12da 233f f770 963e 4a79 f83e a105 bdbd
00000060: f827 573e 2a74 eebd e3a1 93be 0257 ec3e
00000070: 2311 6bbe 1ded a9bc 074d 4abe f346 c7be
0.26193976 -0.06501677 -0.047716238 0.06898659 0.2251817 0.2626455 -0.18506315 0.09071855
-0.6257216 -0.058006287 0.11481163 -0.103224434 0.53251904 -0.39512515 0.2843816 -0.26527572
0.09375359 0.94846207 0.048247203 0.48506528 0.64004624 0.2938306 0.48530036 -0.09229589
0.2101134 -0.1164325 -0.28834447 0.46160132 -0.22955756 -0.020742947 -0.19755946 -0.38921317

layer2.1.running_var f4 [32]
00000000: a346 2f3f 4329 fa3e 3bc7 ee3e 9d2b 213f
00000010: 4807 083f 8bf3 e43e 1e1a 0d3f 173d e53e
00000020: 6a5d d63e fa23 253f 8424 ef3e ed32 303f
00000030: 3e74 243f 2e19 ee3e 4582 1c3f 3f9e 253f
00000040: b3e1 323f 2ea9 0d3f bbc5 403f 11e8 093f
00000050: 5793 b73e ec46 203f 4d2d 1f3f 0df1 013f
00000060: 9721 fe3e d1eb f73e a839 413f cec8 e43e
00000070: b8d2 183f a809 1c3f 8a0a f23e 4a13 313f
0.6846716 0.48859605 0.46636376 0.62957174 0.5313611 0.4471706 0.55117977 0.4477317
0.41868144 0.6450802 0.46707547 0.68827707 0.6423987 0.46503586 0.61136276 0.6469459
0.6987564 0.5533627 0.7530171 0.5386973 0.358546 0.6260822 0.621785 0.5075844
0.49635002 0.484221 0.754786 0.44684452 0.5969653 0.60952234 0.47273666 0.6917006

fc.weight f4 [10, 1568]
00000000: c145 f0bd f3a5 aebc e1be c73c 7af4 8cba
00000010: 15df 3a3d b5fb 9abc 4f5c 6b3c 6700 06bd
00000020: c204 133b 4c1b da3c 136f 5abd 060d c7bc
00000030: 20f1 05bc 1ed5 163d 5a70 30bd b2d6 b8bc
00000040: c935 133c 01c6 21bd 5787 68bd 5882 abbc
00000050: 5448 673d 26b8 083d c438 443d 74b3 1abd
00000060: 7cbb e43c 25e3 413d 8799 673c 2efd 3cba
00000070: acf0 833d 06c0 ad3c 4b72 913d 8797 1a3d
00000080: 5348 3f3c c5c0 d23c f069 ac3c e14e 82bc
00000090: 9b95 bd3c 7026 88bc f88d f9bc 2a2c 6f3c
000000a0: b547 6bba d9d0 2e3d e087 2abd 97a7 87bd
000000b0: 8194 e4bd 54a0 8ebc ec9c 66bc bc3c 06be
000000c0: 3e3f c3bb 17bf 8bbc a61a 5ebd ff67 82bc
000000d0: 5a0b 843c 1c76 2ebc 32b3 fa3c 3d41 28bc
000000e0: ed83 07be 33ed 9ebd 3667 50bd 9529 9fbd
000000f0: a082 10bd fc5b 89bc 4069 f43c c3ff d7bc
00000100: 2aa5 d8bd 3703 4cbd 5903 a73c e3ec 583d
00000110: 2279 98bd e554 61bc 41c5 75bc 93e3 85bd
00000120: ccce d2bd a4ba 9ebd 2b51 d8bb 526b 15bd
00000130: f910 d8bc aedb 62bd 2c49 dd3c 05e6 473d
00000140: 93f1 7ebd b892 63bc 387e efba 1a32 c3bb
00000150: d721 2ebc 6e9a 1b3d 422c 0d3c f7c0 64bd
00000160: d74a 49bd a919 d2bc 06fa e33c c536 5dbd
00000170: af80 873c 8dca d2bd e19a 14be 1f79 d1bd
00000180: 4ae5 fb3b 7971 c4bb 5523 c0ba 1b56 a33b
00000190: 793d b5bc d839 5dbd fdec 5c3d 4cf8 01bd
000001a0: 0ca2 6aba 070f bebc eb41 be3b eeac e63c
000001b0: b630 2a3d 15d7 a3bd 8d99 8dbd 49b4 34bc
000001c0: 22ac 1abc 9073 73bd 5b67 b4bd 249d c5bc
000001d0: 4175 53bd c794 5cbd baba f9bd 98ca 29bd
000001e0: df09 f7bd 54c6 d4bd af40 54bd 344e 333d
000001f0: 5c38 843c 604f 07bd 9c8f a9bb 0181 e1bb
00000200: ffdc 13bd ee16 debb 0261 d03d e127 a13d
00000210: f57d 02bd 5853 643d 579c 783c a12f 203d
00000220: bf55 0abd 68c9 47bd 0763 6b3d 3f5d e0bc
00000230: de5e d33b 30bd d23c a1d6 b33d 1097 333d
00000240: b936 6dbe 7dcc 2cbe 52b5 bebd c8ee 16bc
00000250: d712 d8bc a1a5 d63a 641d a1bc 8748 45bd
00000260: ebfa 093c a2c9 ad3c dd90 11bd 93c0 82bd
00000270: 21e4 c8bc 84af ee3c 2007 e23c adbc 1abc
00000280: eb61 e53b f490 8d3c c0de ce3c 6133 1d3d
00000290: 8e4c 633d ac49 203d cf0f dcbc 0405 5abb
000002a0: ce5c 973c 53d9 ac3b 2ccd 1a3d 8658 75bd
000002b0: 4fbd a03b 8d09 de3b ff83 403c 3e06 cfbc
000002c0: 3b0e b9bd 9557 febd 1b8f d3bd 4927 aebd
000002d0: 7ef6 40bd 6147 25bd bc69 67bd 9910 c6bd
000002e0: f8e7 24bd 7be0 c2bc 9d94 ab3c 32ac d5bd
000002f0: 5365 2bbd 33d3 2abd 87b8 93bd 8a62 31bd
00000300: 97ea 27bc 52cd 643d afee 853c 004d 4d3c
00000310: 46ff b8bd e76e d9bd da02 4bbd 9b91 febb
00000320: 5304 b33c c187 85bb 798d ff39 bfa4 e9bd
00000330: 7664 fbbc e170 aabd bc65 373b 40a4 d83c
00000340: 6a89 f5bc c2bf 733d 459d 253d 95fe 9ebc
00000350: 7fc2 54bc d672 2f3d 8cef f6bc 405c 2e3d
00000360: 838f 8ebc 4f64 8abc 03e0 cbbd d1d9 cabd
00000370: 4564 f03b acd4 afbc 29b7 8cbd ce89 113d
00000380: 8927 b8bd bd3e 28bd 8dae b23c 3098 4dbc
00000390: 1f5e 6bbd 95a8 da3c adb6 253d b5b3 c6bc
000003a0: 5aec 1cbd e809 5e3c 32d8 023d 1c6e 8f3c
000003b0: 2e03 3e3c 061f b83c 35bc acbc fc5a 20bd
000003c0: bf9c 80bc fbcf 843d fadb b73c 2c72 98bc
000003d0: c5e8 bd3a 9db2 89bc 8043 a7bc 9961 d83c
000003e0: 1524 dabc 50ea 413c b116 ebbc 512d c83b
000003f0: 34cc 743c 0460 54bc b298 92bd 438a 09bc
-0.117320545 -0.021319365 0.02438301 -0.0010754012 0.045622904 -0.018918851 0.01436527 -0.032715227
0.0022433256 0.026624344 -0.053328585 -0.024298202 -0.008175164 0.03682434 -0.043075897 -0.022563312
0.008984991 -0.039495472 -0.056769695 -0.020936176 0.05646546 0.033378743 0.0479057 -0.037768796
0.02792143 0.047335763 0.014135725 -0.00072093576 0.06442389 0.021209728 0.07101878 0.037742164
0.011674958 0.025726685 0.021046609 -0.015906753 0.023142627 -0.01661989 -0.030463204 0.014597932
-0.0008975224 0.04267964 -0.041633487 -0.06623762 -0.11161137 -0.017410435 -0.014075499 -0.13109106
-0.005958467 -0.017058892 -0.054224633 -0.01591873 0.016118694 -0.010648277 0.030603025 -0.01026946
-0.1323392 -0.07760086 -0.05087968 -0.07771603 -0.035280824 -0.016767494 0.029835343 -0.026367074
-0.105783775 -0.049807753 0.020387338 0.052960288 -0.07444979 -0.013753151 -0.015000642 -0.06537547
-0.102933496 -0.077504426 -0.006601473 -0.0364793 -0.02637528 -0.055385284 0.02701243 0.048803348
-0.062242102 -0.013889961 -0.0018271869 -0.0059569003 -0.010628185 0.037989073 0.008616509 -0.055848088
-0.04914364 -0.025647001 0.027829181 -0.05400731 0.016540853 -0.1029254 -0.14512207 -0.1022818
0.0076872455 -0.0059949723 -0.0014658967 0.00498463 -0.022124039 -0.054010242 0.053936947 -0.031730935
-0.00089505385 -0.023200525 0.005806198 0.028158631 0.04155036 -0.08000008 -0.06914053 -0.011029311
-0.009440454 -0.05943638 -0.08808776 -0.024122782 -0.051625494 -0.053852823 -0.121938184 -0.041452974
-0.1206243 -0.103893906 -0.0518195 0.043775752 0.016140155 -0.033034682 -0.0051745903 -0.0068818335
-0.03609943 -0.006777636 0.10174753 0.078689344 -0.031858403 0.055743545 0.015173993 0.039107922
-0.03377318 -0.04877606 0.057467487 -0.027388213 0.006450518 0.025724977 0.087811716 0.043845236
-0.23165406 -0.16874881 -0.09311928 -0.009212203 -0.026376171 0.0016376266 -0.019667335 -0.04816487
0.00842164 0.02121431 -0.035538543 -0.06384387 -0.024522843 0.029136427 0.027591288 -0.009444398
0.007000198 0.017281033 0.0252527 0.038379077 0.05549293 0.03913276 -0.026863007 -0.003326715
0.01847687 0.0052749305 0.037793323 -0.059898876 0.00490538 0.006776041 0.01175022 -0.025271531
-0.09035917 -0.12419049 -0.103300296 -0.08503587 -0.047110073 -0.040351275 -0.05649732 -0.096711345
-0.040260285 -0.023788681 0.020944888 -0.10433234 -0.041844677 -0.04170532 -0.0721293 -0.043306865
-0.010248802 0.05585987 0.016349165 0.012530565 -0.090330645 -0.10616856 -0.049563266 -0.0077688224
0.021852648 -0.004075021 0.00048742795 -0.11408376 -0.030687552 -0.08322311 0.0027984222 0.026445508
-0.02997275 0.059509046 0.040433187 -0.019408504 -0.012985825 0.042834125 -0.030143522 0.042568445
-0.017402416 -0.016893534 -0.09954836 -0.099048264 0.007336172 -0.021463715 -0.068708725 0.03553181
-0.08991916 -0.041075457 0.021811748 -0.012548491 -0.057462808 0.026691714 0.040457416 -0.024255613
-0.03831134 0.0135521665 0.03194446 0.017508559 0.011597438 0.02247573 -0.021085838 -0.03914927
-0.015699742 0.064849816 0.02244376 -0.018609129 0.0014488926 -0.016808802 -0.020417929 0.026413726
-0.026628533 0.01183565 -0.028697344 0.0061089178 0.014941264 -0.012962345 -0.071580306 -0.008394781

fc.bias f4 [10]
00000000: bab7 193d cedf 833c 40f2 d63c 12ea 963b
00000010: 30b1 d4bc e33c e4b9 f958 a63c 8b51 8cbc
00000020: 7dec 07bd 2d5d 9abb
0.03752873 0.01609793 0.02623856 0.00460554 -0.025963396 -0.00043532913 0.020306097 -0.017128726
-0.033184517 -0.0047108144
