notebook/02-intermediate/recurrent_neural_network/model.ckpt (torch, 858979 bytes, 10 tensors)

lstm.weight_ih_l0 f4 [512, 28]
000000 1c 16 ba 3e 18 cd 05 bd ae 06 71 be b9 f1 74 bf
       0.36344993 -0.032666296 -0.23537704 -0.9568134
000010 69 10 a6 be 48 7d b0 be c0 d8 02 bf 53 5a 2a bf
       -0.32434395 -0.34470582 -0.51111984 -0.66544074
000020 a5 df 44 bf e7 09 1f bf 51 ac 20 bf 9c 33 81 be
       -0.76903754 -0.62124485 -0.62762934 -0.25234687
000030 28 a1 6e be ea 36 eb bd fd cb 22 bd 9c 24 69 bd
       -0.23303664 -0.114850834 -0.03974532 -0.05691968
000040 2e 51 19 be d5 5d 6e be d7 6f d0 be 1b 7a f8 be
       -0.14972374 -0.23277982 -0.40710327 -0.4853066
000050 d0 7b 22 bf ad 57 16 bf 7a 27 a9 be 66 20 22 be
       -0.6347017 -0.5872753 -0.3303793 -0.15832672
000060 85 31 12 3e ee 39 c9 3e 0a 4b bb 3e 00 b8 ba be
       0.14276703 0.3930201 0.36580688 -0.36468506
000070 c6 d7 6f be 97 b9 09 bf d6 0b 20 bf 37 bc 12 bf
       -0.23422155 -0.5379881 -0.6251806 -0.57318443
000080 96 7c ed be 7c 1c b7 be 40 3c 35 bf 4d 13 1c bf
       -0.46384114 -0.3576392 -0.7079506 -0.6096695
000090 1c 2b ba be a6 62 08 be a5 12 1d bd 4b c7 4b 3d
       -0.36361015 -0.13318881 -0.03834786 0.049750607
0000a0 54 fa a5 be 8e 0e 18 bf a8 7d db be 87 f8 94 bd
       -0.32417548 -0.5939721 -0.42869306 -0.07273965
0000b0 8f 02 ea bd fb 45 85 be ac 19 39 bf fd 10 10 bf
       -0.11426269 -0.26029953 -0.723048 -0.5627592
0000c0 c1 f1 9f be 53 61 f8 be ee 63 d0 be 8b e7 72 be
       -0.3123913 -0.48511752 -0.4070124 -0.23721139
0000d0 3d e8 88 bd 84 f6 de bd 33 87 da 3d 5e 6b 98 3e
       -0.06684921 -0.10886863 0.106703185 0.29769415
0000e0 72 f8 d4 bd 0e b6 0f be 96 fc 14 3c c8 d3 8f 3d
       -0.1039895 -0.14034292 0.009093424 0.07022816
0000f0 34 58 4d 3e dd 6e 86 3e 2b 6a e2 3d cc 88 16 3e
       0.20053178 0.26256457 0.11055406 0.14700621
000100 7a 63 ed 3d 88 95 23 3e 2d a9 84 3e 89 fe b6 3e
       0.11591239 0.1597501 0.2591032 0.3574107
000110 90 0c 5d 3e 41 c2 7f bc c3 2a c9 3d 21 0f bf 3e
       0.21586823 -0.015610279 0.09822609 0.3731623
000120 67 3d 18 3f 1b 18 86 3e 7b 78 41 be 24 c3 8e 3d
       0.5946869 0.26190266 -0.18893616 0.06970814
000130 00 28 ec bd 24 9b 10 bd 62 0d 4d 3d 6a 4f 57 bd
       -0.11531067 -0.035304204 0.05006159 -0.05256597
000140 e4 6a 17 bd 36 96 19 be a2 fc ed 3e 23 7c 0d 3f
       -0.036967173 -0.14998707 0.46481806 0.5526754
000150 ab 5b 06 be 6d ca 5e be 9d 84 43 bf 58 3b 79 be
       -0.13120906 -0.21756907 -0.76374227 -0.24339044
000160 8c 28 73 be 3a aa cb be 6b 6f 1e bf 84 f2 76 bf
       -0.23745936 -0.3977831 -0.6188876 -0.964638
000170 ae 85 1b bf ab 28 01 bf ad 04 94 be 1c 2e 93 bd
       -0.60750854 -0.5045268 -0.28909817 -0.07186529
000180 0c 9c b5 3d bc 41 b5 3b a7 37 42 3d e6 5b 88 bc
       0.08867654 0.005531518 0.047416355 -0.016645383
000190 b7 88 47 3e 6a 84 85 3e 02 12 9c 3e 0a 55 e8 3d
       0.19485746 0.26077586 0.3048249 0.11344345
0001a0 cd cc d9 bd 7a e1 bc bd 61 23 5a be d2 89 7b bc
       -0.10634766 -0.09222694 -0.21302558 -0.015352683
0001b0 36 c7 9e bd aa 35 08 3e be b9 cb bc 40 d6 99 bd
       -0.0775284 0.13301721 -0.024868842 -0.07511568
0001c0 6d 84 8d 3e 11 43 11 3f a0 42 90 3e 61 68 53 3e
       0.27640095 0.5674296 0.2817583 0.20645286
0001d0 ee 70 8f be 12 86 b2 bc a6 d4 c4 3c 88 b6 03 bc
       -0.28015846 -0.021792445 0.02402718 -0.008039124
0001e0 2c 17 c8 3d 46 4b 96 3e 2a fb ac 3e 52 d7 94 3e
       0.09770045 0.29354304 0.33785373 0.29070526
0001f0 74 26 46 3e 00 50 69 bd 07 56 49 be 9b 54 a3 bd
       0.19350606 -0.05696106 -0.19661723 -0.079751216
000200 30 12 a8 bd e2 46 09 bd ed bf 68 3d fa 9a 2f 3d
       -0.08206594 -0.033514865 0.05682366 0.042872407
000210 33 5a a0 3d 88 7d 8e 3d 94 6f 8e 3d a3 f7 56 3d
       0.07829704 0.06957537 0.069548756 0.05248226
000220 9c fa bc be 06 22 c8 be 56 57 88 bc 30 41 1e 3e
       -0.3690995 -0.39088458 -0.016643208 0.15454555
000230 2e 60 8a 3e c5 e1 63 3e 0c 6b 89 be 6f 54 b2 be
       0.27026504 0.22254093 -0.26839483 -0.34830043
000240 91 29 f0 be d0 74 1a bf 3b a7 35 bf 20 16 04 bf
       -0.46906713 -0.6033449 -0.709583 -0.5159626
000250 9d 46 fc be a5 f9 b2 bd c6 5b 0f 3e ee 27 6c 3d
       -0.49272624 -0.08739022 0.13999853 0.057655267
000260 52 63 b3 bd 1a 42 14 3e fc 64 04 3e 52 b6 7f 3d
       -0.08759178 0.1447834 0.12929147 0.062429734
000270 83 e3 b2 bb a4 d5 c8 be 19 cf 2e bf 67 45 0b bf
       -0.0054592504 -0.39225495 -0.68284756 -0.54402775
000280 28 3e d0 be 34 1c dc be c0 43 19 bf 59 e1 7b be
       -0.4067242 -0.42990267 -0.59869003 -0.24597682
000290 cb a8 2d bc d4 ff 26 3e a1 7a e2 3e 55 d3 8d 3e
       -0.010599325 0.16308528 0.44234183 0.27700296
0002a0 a2 8b 5e 3c 66 81 4e 3e 2a 29 5c 3e fc e8 e9 3d
       0.013583096 0.20166549 0.21500078 0.11421391
0002b0 b0 b4 a2 3e ea f9 a0 3d 60 0c ba 3e 42 90 77 be
       0.3177848 0.07860167 0.36337566 -0.24176124
0002c0 b4 c6 a4 be fb 47 2e be ae 4b 73 be b0 8f a3 be
       -0.32182848 -0.17019646 -0.23759338 -0.31945562
0002d0 53 c7 d5 bd c7 9d 63 3e 62 b1 bb 3d a4 df 90 be
       -0.10438409 0.22228156 0.091646925 -0.28295624
0002e0 8a da 0d bf 32 17 8f be fd 49 96 be 02 19 a4 bd
       -0.5541159 -0.27947384 -0.29353324 -0.08012582
0002f0 84 3e 44 bd e8 3c 02 be 5c 63 68 3e b1 1a d3 3d
       -0.047911182 -0.12718546 0.22694153 0.10307825
000300 7b 2f 85 bd ff 1e 06 bf d8 1f de be 67 24 13 3e
       -0.06503197 -0.52391046 -0.4338367 0.14369355
000310 49 54 93 3e 9b 8d 02 be 12 0f d6 3d 86 8a 45 3d
       0.28775242 -0.1274933 0.10452093 0.04822781
000320 cb 64 a0 3e 6b ec cb 3e e2 fd 8d 3e 7a 68 81 3e
       0.313269 0.3982881 0.2773276 0.25275022
000330 ea d5 91 3e 7d e8 30 3e 83 72 05 3e ae 2b 02 3e
       0.28483516 0.17276187 0.13031964 0.12711975
000340 ef 4d ed bc c3 11 7f bd d5 ad 61 be f1 85 24 be
       -0.028967826 -0.0622728 -0.22038968 -0.1606672
000350 d1 4d c8 3d be f6 34 3e d7 b3 18 3e 30 4b 6e 3e
       0.09780467 0.1767225 0.14912353 0.2327087
000360 dc 9c 22 3e d0 e2 a2 3a 7d 78 57 3c 51 2a 8d 3d
       0.1588015 0.0012427215 0.013151285 0.06892837
000370 cb 94 03 be ec 58 d9 bc de ee 49 3e a3 6d 0c 3f
       -0.12849729 -0.026531659 0.19720027 0.5485479
000380 b9 8e 74 3b c9 99 7b 3d 73 49 08 bf b8 0e 04 be
       0.0037316515 0.061425958 -0.53237075 -0.1289624
000390 a5 7d 2a be fc f4 49 be d1 80 7d be 84 53 c7 be
       -0.16649492 -0.1972236 -0.24756171 -0.38930905
0003a0 1b 1f f2 be 69 e9 3b be fe 69 4f be a3 ac a8 be
       -0.47289357 -0.18350758 -0.20255277 -0.3294421
0003b0 22 ad e0 be 90 74 dd be 7e 6c 88 be cf 7c 82 bc
       -0.4388209 -0.43252993 -0.26645273 -0.015928654
0003c0 ec 6f 3d 3d 1c 23 83 bd eb be 73 be 54 ef 77 be
       0.046249315 -0.06403181 -0.23803298 -0.2421239
0003d0 8c 5f 82 be 0e c3 c3 be 37 b9 f2 be 7e e4 26 bf
       -0.2546352 -0.38234752 -0.47406933 -0.651924
0003e0 07 10 1c bf 1b ce 27 3e 95 34 d4 3e 47 e9 cc 3d
       -0.60961956 0.16387217 0.41446367 0.100054316
0003f0 d1 f8 f7 bb 81 4e 2a bd c7 f4 a4 3d 75 78 f6 be
       -0.007567503 -0.041578773 0.080545 -0.48138776

lstm.weight_hh_l0 f4 [512, 128]
000000 9e ae df 3d 10 6a cd bd 62 95 93 3b 1a c0 2b be
       0.109219775 -0.100299954 0.004503892 -0.167725
000010 87 ae 77 3c 9b ad 97 bd 22 a3 c1 be 85 61 21 3e
       0.015117294 -0.074061595 -0.37819773 0.15759857
000020 31 37 64 be 97 e1 56 3e 14 62 34 be 5a 2e 33 bb
       -0.22286679 0.20984493 -0.17615539 -0.002734086
000030 cb bd 3f 3e 1e 91 dc bd 63 0f c2 be c5 65 c4 3e
       0.18724744 -0.107698664 -0.37902364 0.38358894
000040 79 b9 70 3e 11 31 bf be 28 d5 1b 3e ea c1 9a be
       0.23508252 -0.37342122 0.15218031 -0.3022607
000050 5e 10 a9 bd 07 9b f4 bd 5a 69 ed 3e 40 e9 4b 3d
       -0.08255075 -0.119436316 0.4636944 0.04978299
000060 45 ab bc 3d 85 fd 2e be b1 9f a5 be 09 a1 8c bc
       0.092123546 -0.17088898 -0.32348397 -0.017166631
000070 2f 92 30 3d 3a 79 0c bf 1d 6c f4 be 61 ce ac bd
       0.04310816 -0.5487248 -0.47738734 -0.08437801
000080 5a 79 eb 3d 30 a4 99 3e 8c 67 3f be d9 23 b5 be
       0.11497755 0.30008078 -0.18691844 -0.35378912
000090 7c 94 b6 3e 7d 7c 61 be 73 ec ad 3e 78 d2 16 3e
       0.3566016 -0.22020145 0.3396946 0.14728725
0000a0 5c 71 fe be dd c4 a0 be 55 42 c4 3e 5a 19 f8 3d
       -0.4969586 -0.31400195 0.38331857 0.121142104
0000b0 15 89 30 3d 6a 70 c2 3c 1d 6e 0b 3f 0a 7a 06 be
       0.04309948 0.023735244 0.54464895 -0.13132492
0000c0 00 d6 d4 bd c9 f5 8f 3e 21 e5 b2 3d a0 6a 16 3f
       -0.1039238 0.28117207 0.08735109 0.58756447
0000d0 57 5d aa 3e a3 a0 c3 3e 05 23 c9 bd 55 c7 0e be
       0.33274338 0.38208494 -0.098211326 -0.13943227
0000e0 f9 35 3b 3e a3 d3 0e bd f5 19 a4 3c 5a a3 e2 3d
       0.18282308 -0.0348698 0.020031909 0.11066313
0000f0 3f 00 68 3e 24 4a b1 bd 1f a1 3d 3e 56 8d 4c be
       0.22656344 -0.08656719 0.18518494 -0.1997579
000100 63 94 a0 be 4f 4b 27 bd 06 85 25 3d 9a 2e a6 bd
       -0.3136321 -0.040843304 0.040410064 -0.08114357
000110 ef 06 3a 3e 84 17 07 bd 39 51 51 be 2f ec ce bd
       0.18166707 -0.03298141 -0.2044114 -0.10103642
000120 20 f1 57 be c9 a8 db bc 82 b9 5d 3e f7 ea 91 3e
       -0.21088076 -0.026813881 0.21652797 0.28499576
000130 2b 53 b4 be 97 21 9e bd a7 11 c8 3d 4a c0 84 3e
       -0.35219702 -0.077212505 0.09768992 0.25927955
000140 e5 f3 ff 3c 7e a3 37 3e 89 47 f2 3d d2 5e 57 3d
       0.031244228 0.17933461 0.118300505 0.052580662
000150 05 4a c9 be b6 03 a0 3e 44 c6 82 be 9d b8 0f be
       -0.39314285 0.3125283 -0.2554189 -0.14035268
000160 55 ea 63 bd 29 cf 9d 3e 3e 31 a5 be 8f dc 15 3e
       -0.0556434 0.30822113 -0.3226413 0.14634918
000170 de cb c6 3d 28 5c fc bd 62 79 75 3e 9a ef e3 3c
       0.09706853 -0.12322265 0.23972085 0.027824212
000180 a3 85 fe 3e b1 17 b6 bd 81 46 34 bd 0f 70 11 be
       0.49711332 -0.088912375 -0.04401255 -0.14202903
000190 3e 65 d3 bd 24 3b 84 bd d4 0d 4d 3e a6 0a 13 3e
       -0.10322045 -0.06456593 0.20024806 0.14359531
0001a0 9f a1 c7 3e 19 c9 5e bb 11 5e 99 bd 82 09 5d 3e
       0.38990495 -0.0033994375 -0.07488645 0.21585658
0001b0 ae bf 23 3e 45 29 0f 3d 4a 98 9c 3e 60 10 ab 3e
       0.15991089 0.034951467 0.30584937 0.3341093
0001c0 05 c6 7a 3e 6b f4 7b 3e 9f a0 a3 bd 89 0b 45 3d
       0.24489601 0.24604957 -0.079896204 0.048106704
0001d0 15 c9 01 bd 02 a0 18 bd 50 a5 48 bf 57 97 07 bd
       -0.031685907 -0.03726197 -0.78377247 -0.033103313
0001e0 03 ad bc 3d dd 55 e5 bd 3f d1 7a 3e 68 5c d2 be
       0.09212687 -0.11198018 0.24493884 -0.41086125
0001f0 af 74 51 be 08 a2 e7 3d 21 7f d7 3e 62 3a 95 be
       -0.20454668 0.11310202 0.4208918 -0.29146105
000200 d0 9f d0 be 19 2e 61 be 8f 89 50 be 5c 90 31 be
       -0.40746927 -0.21990241 -0.20364974 -0.17340225
000210 61 85 bd 3e db 3b 93 be 18 b2 cd be c8 50 20 3e
       0.37015823 -0.28756604 -0.40174937 0.15655816
000220 41 fd 91 3d c7 c0 67 3d 5d 5f a3 be b3 b2 66 3e
       0.071283825 0.05658033 -0.31908694 0.22529106
000230 90 2a 4c 3e 53 fc 35 bd 0f e3 16 3d 93 38 18 3e
       0.19938111 -0.04443009 0.036837634 0.14865331
000240 39 e5 00 3e 7e 53 5b be 55 35 fb bc a5 e4 1c bf
       0.12587442 -0.21418568 -0.03066508 -0.61286384
000250 9e aa ce bd 28 bc 67 3e 74 bf 29 3e df 86 a5 be
       -0.100911364 0.2263037 0.1657694 -0.3232946
000260 3a 71 5f 3e ad 2b 97 bc 4d ea 99 3e 25 ac 4c 3d
       0.21820536 -0.018453443 0.3006157 0.049968857
000270 dc bb 8b be 27 33 3f be 1c 80 88 be 93 39 4c 3e
       -0.27291763 -0.18671857 -0.2666024 0.19943838
000280 f5 b8 62 be 2e db 3a bd f0 b7 98 be 8b d0 1e 3e
       -0.22140868 -0.045619182 -0.29827833 0.1550924
000290 7e ae a3 be 3a 5d c4 bc 57 9c 4b be 85 c9 34 3e
       -0.31969064 -0.023970235 -0.19883858 0.17654999
0002a0 a8 5f 37 bf 86 8d 80 3d 07 7c b4 3d e7 5c cd be
       -0.71630335 0.062769935 0.08812719 -0.4010994
0002b0 28 b8 81 3d c6 c3 db bd 6b 28 07 be 92 91 e0 3e
       0.06333953 -0.107307 -0.13199012 0.4386106
0002c0 95 e9 b3 be 51 05 a4 3c 71 6c d2 bd cb f9 ef 3d
       -0.35139146 0.020022066 -0.1027459 0.11717566
0002d0 bf 5a 49 bc 27 1d 14 3e e1 db 91 3e f3 e8 e8 3e
       -0.012289702 0.14464246 0.28488067 0.45490226
0002e0 67 d7 b1 3e 6d a0 f8 be 41 b9 a6 3c 1e 76 c3 3e
       0.3473465 -0.48559895 0.020352008 0.38176054
0002f0 00 00 6e be 34 3b 3f bd 8e 2c 4c 3e 42 81 9f 3d
       -0.23242188 -0.04668732 0.19938871 0.07788326
000300 72 29 20 3e ed 8e 0b 3e 1d 32 0a 3e 2a c2 81 3e
       0.1564081 0.1362874 0.13495679 0.25343448
000310 8c b0 59 3e 75 c7 a6 be af 37 c9 bc bc 55 aa bd
       0.21258754 -0.3257405 -0.024562685 -0.08317134
000320 27 a0 c5 3e 22 4f 2e 3e 57 f0 b3 3c 05 49 77 be
       0.3859875 0.17022374 0.021965189 -0.24148948
000330 52 e8 15 bf e7 77 50 3b cb 03 7f 3d 5f cb 32 3e
       -0.5855762 0.0031809749 0.062259477 0.17460392
000340 f6 3c d1 3c db 6b 93 bc 42 ed b4 be 58 ab 11 be
       0.025541764 -0.017995765 -0.35337263 -0.14225519
000350 0e f7 c0 be 50 a3 90 3e f9 3e 76 bd fc 33 d9 3e
       -0.37688488 0.28249598 -0.06011865 0.42422473
000360 57 28 87 3d dd 3d ae 3d 15 c2 dd 3d ff 5f 23 3e
       0.06599491 0.08507893 0.10828034 0.15954588
000370 57 97 0c be c6 c4 0e bd d3 bf 5d be 02 ac 89 be
       -0.13729607 -0.034855627 -0.21655206 -0.26889044
000380 e1 d0 9f 3c 15 90 81 3b 5a 8d 25 3d 01 e9 a4 bd
       0.01950878 0.0039539435 0.040418006 -0.080522545
000390 6a eb e9 3d 68 a0 a0 bd 2f 7c ce 3e 2e a0 b8 3e
       0.11421855 -0.07843095 0.4032912 0.36059707
0003a0 56 ea a6 be 54 af df bd 6c 32 6a 3e 1c 73 46 be
       -0.3260066 -0.10922113 0.22870797 -0.19379848
0003b0 d1 5e f3 bd f1 73 2c 3d 28 e2 6f bd 3a e1 b2 be
       -0.11883319 0.042102758 -0.05856529 -0.3493746
0003c0 19 ff c2 3e 61 cb 8e 3e ac 8a 30 3e 7c d0 a1 be
       0.3808525 0.2788954 0.17240399 -0.31604373
0003d0 e4 fb 6b 3e 00 f8 4d be 8a 9d ee bd 96 f4 bb 3e
       0.23045307 -0.20114136 -0.11651142 0.36710042
0003e0 ce fc 1f 3d 2f eb e7 3e 11 dc 69 3e e1 9e 54 3e
       0.039059453 0.45296618 0.22837855 0.20763732
0003f0 4c 28 66 be ed 5b 8c be 65 2f 78 3e 12 5f d6 be
       -0.2247631 -0.27413884 0.2423683 -0.41869408

lstm.bias_ih_l0 f4 [512]
000000 8d 79 93 be 19 2d 48 be 91 c7 f9 be 6e b1 83 be
       -0.28803673 -0.19548453 -0.4878507 -0.25721306
000010 62 64 b8 be e5 72 4d be 6a 76 a7 be 37 51 6b bd
       -0.36014086 -0.2006336 -0.3270753 -0.0574505
000020 0d 7f 55 be 39 27 e8 bd 42 58 9c be 4b 18 b0 bd
       -0.20849247 -0.11335606 -0.30536085 -0.085983835
000030 42 c1 1c bf e8 3c 05 bf 1e 70 f1 be 18 b6 b0 3c
       -0.6123239 -0.5204606 -0.4715585 0.021571204
000040 51 dc d0 be 16 3c 08 be 08 c1 8c be d3 65 8f be
       -0.40793088 -0.13304171 -0.2749102 -0.28007373
000050 47 10 09 bf 78 16 73 be a7 c6 82 be 61 1f d2 be
       -0.5354046 -0.2373904 -0.25542185 -0.41039565
000060 38 45 5f be 45 e5 b7 be bc a9 c2 be 9a f7 19 bf
       -0.21803749 -0.35917106 -0.38020122 -0.60143435
000070 3e 31 de be 33 7a 77 be 76 b9 92 be 1c 5a 14 be
       -0.43396944 -0.24167709 -0.2865712 -0.14487499
000080 db 29 47 be 27 41 7e be 22 7b 8b bc 96 da ff be
       -0.1944956 -0.24829541 -0.017026488 -0.49971455
000090 46 c9 d2 be f9 25 13 be d0 05 02 bf 29 f3 ae be
       -0.41169184 -0.14369954 -0.5079012 -0.3416989
0000a0 da b0 ab bc ea 37 24 be 05 98 80 be f6 a8 ec bd
       -0.020958353 -0.16036955 -0.25115982 -0.11555664
0000b0 2d 54 9d be cf a2 52 bd 5b a4 75 bc d9 c4 f9 be
       -0.30728284 -0.051424798 -0.014992799 -0.48782995
0000c0 c7 f9 ba be bf 09 b0 be 3b fb 1a bf 0b a9 84 be
       -0.3651869 -0.34382436 -0.605396 -0.2591022
0000d0 f7 b1 98 bd da fd 9e bd 29 23 b0 bc 9e 81 5f be
       -0.07455819 -0.07763262 -0.02150114 -0.21826789
0000e0 e9 0c 2f be 57 a3 23 3e 7c b5 81 be 9f 62 e4 be
       -0.17094769 0.15980278 -0.25333774 -0.44606492
0000f0 7c f5 a4 be 63 33 8b be ca 2d 8c be bb e7 0d be
       -0.3221854 -0.27187642 -0.27378684 -0.1385793
000100 29 f6 78 be 83 3b 00 bf e5 6b a5 be 9d 2e 46 be
       -0.24312653 -0.5009081 -0.3230888 -0.19353719
000110 80 80 87 bd 4d e5 4a be a2 3d 41 be 07 25 f1 be
       -0.06616306 -0.19814034 -0.18871167 -0.47098562
000120 4c 77 be be ef 7f 12 be 2a dd 13 be 6b c9 22 be
       -0.3720039 -0.14306615 -0.14439836 -0.15897147
000130 07 5c 89 be fe 6b 77 bd ed bb 9b be e0 0e c0 be
       -0.26828024 -0.060405724 -0.30416813 -0.3751135
000140 ad a8 25 be 22 c1 ce be eb 10 c6 bd 5a 0d c8 be
       -0.16177626 -0.40381724 -0.096711956 -0.39072686
000150 35 ef 04 bf 26 7f 88 be 6e a0 87 be 28 02 01 be
       -0.519275 -0.26659507 -0.26489586 -0.12598479
000160 4a d0 2e 3d f9 57 42 be ab 3d 23 3e 13 6e 8e be
       0.04267911 -0.18978871 0.15941493 -0.27818355
000170 88 5e cf bd ee 86 c3 be d4 dd d5 be 8a 08 b6 bc
       -0.10125452 -0.3818888 -0.41770804 -0.022220869
000180 76 3c 28 be 32 f8 84 be c9 7f e3 be 63 a3 d4 be
       -0.16429314 -0.25970608 -0.4443343 -0.41530904
000190 d3 10 e5 bd 3b c8 cf bd 02 9e 9f be 0b a7 57 be
       -0.111848496 -0.10145613 -0.31175238 -0.21059816
0001a0 76 e1 9e be 89 e8 fb be 7d d9 10 be cf 4c 37 be
       -0.31031388 -0.49200848 -0.14145465 -0.17900394
0001b0 28 e9 85 be ec 4b 0a bf 9a f4 1b be 09 30 3f be
       -0.26154447 -0.540221 -0.15230027 -0.18670668
0001c0 83 ac 92 bd 52 71 1e be 4f 86 8e be 38 44 53 be
       -0.0716181 -0.15472916 -0.27836844 -0.20631492
0001d0 81 d2 07 be 35 89 04 be 23 33 38 be 78 0d ac bd
       -0.13263895 -0.12942965 -0.17988257 -0.084010065
0001e0 68 40 51 be 13 66 c6 be cc 2c c7 be 2d 3b bb bd
       -0.20434725 -0.3874975 -0.38901365 -0.09142146
0001f0 f9 3d 19 be cf 6d 92 be f4 03 15 bf a9 4b f7 be
       -0.14965047 -0.28599402 -0.58209157 -0.48299912
000200 d9 54 b7 3d 05 59 7e be b9 a9 4b bd d7 1c 9c be
       0.0895173 -0.24838646 -0.049722407 -0.30490753
000210 ec ac d5 be 8a 41 17 3e bd f5 b2 be 94 e4 4f bc
       -0.4173349 0.14771095 -0.34953108 -0.012688775
000220 46 22 88 be 9c 4e a5 3d 6e 25 55 3e d5 9d 9c 3d
       -0.2658865 0.08071634 0.2081506 0.076472916
000230 21 0e e0 bd 22 4c 08 be c2 1b 87 be ef 3a 2e be
       -0.10940195 -0.13310292 -0.26388365 -0.17014669
000240 68 80 0f be 6a ee 43 be ea 58 e8 be c0 1c a2 be
       -0.14013827 -0.19133916 -0.45380336 -0.3166256
000250 ef f9 1a bf c3 51 4b 3e 4d 35 42 bd 1c 5a cf bd
       -0.6053762 0.19855408 -0.047414113 -0.10124609
000260 fb 7b 08 3e f8 c5 5c be 67 d5 70 bd 22 1d 1a 3e
       0.13328545 -0.21559894 -0.058797266 0.15050176
000270 9e 2b dd be bd 6a 2d be 7f de 20 be 20 14 10 3e
       -0.4319734 -0.16935249 -0.15709876 0.14070177
000280 51 5e ce be e9 8d ed be 44 13 a2 3e c3 51 d9 3d
       -0.40306333 -0.4639733 0.31655324 0.10611298
000290 ff 9a a8 bd e1 28 ac be dd b6 a5 be d4 cf a6 bd
       -0.08232688 -0.33624938 -0.32366076 -0.08145109
0002a0 c4 f7 05 bf 33 a9 4e bd 1c 69 97 be 86 2e a0 be
       -0.52331185 -0.05045433 -0.2957238 -0.31285495
0002b0 be ee 0d be 4b 24 bd 3c 5f b7 ec 3c 70 5b a5 be
       -0.13860604 0.023088595 0.028896032 -0.32296324
0002c0 0c 9e f0 be bb 58 db be 65 13 16 bf 0c b8 bd bd
       -0.4699558 -0.42841133 -0.58623344 -0.0926362
0002d0 de 60 c4 bd 1c 56 6f be 22 80 f9 bd 8d 05 84 be
       -0.095887884 -0.23372692 -0.121826425 -0.25785485
0002e0 c1 c0 26 bd 0c 9f 30 be 87 da 91 be 19 a5 88 bd
       -0.04071117 -0.17248172 -0.28487036 -0.06672115
0002f0 d7 1d 57 be d9 9b ff 3c 85 9e ea be af 3f 13 3e
       -0.21007477 0.031202244 -0.45824066 0.14379762
000300 93 31 de be df cf e6 bd b6 e0 23 be 3f 25 de 3c
       -0.43397197 -0.11270117 -0.16003689 0.02711737
000310 24 20 16 3e 6a 21 be be 12 ee 61 be c5 9e d9 3c
       0.14660698 -0.37134868 -0.22063473 0.026564965
000320 3f f5 c3 be b0 d9 58 be 7e 29 6d bd e4 6b cc bd
       -0.38273045 -0.21176791 -0.0579009 -0.09981516
000330 f8 75 81 bd b5 12 d1 3d 66 d0 51 be 6d 1d 63 be
       -0.06321329 0.10208646 -0.20489654 -0.22179194
000340 f5 31 27 3e ad 6c 52 be 99 94 70 3e 3c ee a6 bc
       0.16327651 -0.20549269 0.23494186 -0.02037727
000350 7b 9d 46 be cd 6f 62 bd 5f 83 96 be 0d f7 26 3e
       -0.19396012 -0.055282403 -0.29397103 0.1630518
000360 74 d7 44 be 18 48 a7 be 4e 1e 17 be 19 3f 93 be
       -0.19222814 -0.3267219 -0.14757654 -0.28759077
000370 07 50 7b be 25 c9 78 be 26 56 28 be 48 15 d6 3d
       -0.24542247 -0.2429548 -0.16439113 0.10453278
000380 12 1d 81 bd f4 86 62 be 61 33 3b 3d ee d2 3e 3d
       -0.06304373 -0.22121793 0.045703296 0.046587877
000390 08 6b 10 3e d4 07 86 be bd b7 dd bd 82 ec 7a 3e
       0.14103329 -0.26177847 -0.10826061 0.24504283
0003a0 00 f2 c5 bd 1f 47 44 be a4 78 39 bd 4a 1c 42 bd
       -0.096652985 -0.19167756 -0.045281067 -0.04739026
0003b0 4d 49 65 be 29 82 02 bf 78 04 bb be 79 53 eb 3d
       -0.22391243 -0.5097986 -0.36526847 0.114905305
0003c0 bd 81 ae bd 4f 1a 58 be d5 c4 cf 3d fe 1b 26 be
       -0.08520839 -0.21103786 0.101449646 -0.16221616
0003d0 40 81 00 3e b7 06 30 3e 05 ef 53 be f6 29 08 3d
       0.12549305 0.17190062 -0.20696647 0.033243142
0003e0 f5 35 78 3e 9c a3 d2 b9 8b 5d b2 be 16 91 55 3e
       0.24239333 -0.0004017622 -0.34836993 0.20856127
0003f0 0f 81 a6 3c 53 1a ca be 25 ca 2a 3e 01 2b a5 bd
       0.020325212 -0.3947321 0.16678675 -0.08064843

lstm.bias_hh_l0 f4 [512]
000000 89 28 ae be 73 40 67 be da fe 0d bf 24 ff 46 be
       -0.340153 -0.22583179 -0.55467 -0.19433266
000010 80 7d 96 be 99 c8 71 bd 55 2a 9b be a7 7f c7 bb
       -0.29392624 -0.059029195 -0.30305734 -0.0060882154
000020 19 85 83 be 03 44 4d be 9f 45 37 be 84 35 3e 3d
       -0.25687483 -0.20045476 -0.17897652 0.046437755
000030 e5 45 14 bf c2 e0 1d bf 67 7e b4 be 60 5b 2b bd
       -0.5791915 -0.6167108 -0.35252687 -0.04183519
000040 de aa c0 be bd 46 0e be 8f 80 a6 be dc 19 63 be
       -0.3763036 -0.13894172 -0.32519957 -0.22177833
000050 e1 a6 0e bf 58 63 7e be 02 e0 87 be 69 c2 b3 be
       -0.55723387 -0.24842584 -0.26538092 -0.3510926
000060 bb 59 e2 bd 79 30 7f be d7 07 cb be 2f 67 23 bf
       -0.11052271 -0.24920835 -0.3965442 -0.6382932
000070 05 9a f3 be c2 70 36 be d7 c1 9c be 67 e9 b6 bd
       -0.47578445 -0.17816451 -0.30616638 -0.08931237
000080 88 5e 30 be 2b 03 85 be 63 ff 9c bd c5 e9 ea be
       -0.17223561 -0.2597898 -0.07665899 -0.45881477
000090 84 c4 87 be 5c a3 89 be 20 f6 a9 be 85 07 85 be
       -0.26517117 -0.26882446 -0.3319559 -0.259823
0000a0 fa 41 b5 bd 56 ef 28 be 9f a0 9a be fb 0b 98 bd
       -0.08850475 -0.1649755 -0.3020067 -0.0742416
0000b0 3c 35 a3 be 1a 0c a7 3c 7e 97 0a bc c6 03 bf be
       -0.31876552 0.020391513 -0.00845897 -0.37307566
0000c0 f6 10 8f be 6e 5f a7 be 2d 4e 01 bf b9 65 38 be
       -0.27942628 -0.32689995 -0.5050991 -0.18007554
0000d0 74 3a 2a bb 1c cd 8b bd 3d aa e2 3d ee f3 9f be
       -0.0025974782 -0.06826231 0.110676266 -0.3124079
0000e0 a5 31 23 be 51 b3 9c 3d c6 6f 2c be 43 0e c3 be
       -0.15936907 0.076513894 -0.16839513 -0.38096818
0000f0 04 0e 69 be c9 56 9f be 13 e9 cf be d6 d4 65 be
       -0.22759253 -0.311209 -0.4060751 -0.22444472
000100 05 ff bc be 67 17 f1 be 24 49 d0 be 8b a1 88 be
       -0.36913314 -0.47088167 -0.40680802 -0.26685748
000110 a2 0a 59 bd 91 fe 6a be 02 39 2a be 3c fe 0a bf
       -0.052988656 -0.22948672 -0.16623309 -0.5429418
000120 2b c2 b1 be 36 0a 12 be 29 aa 8b bd cd 4b 85 be
       -0.3471845 -0.14261708 -0.06819565 -0.26034394
000130 a9 b6 84 be 67 9e 40 bd 97 ad 51 be 02 e5 b9 be
       -0.2592061 -0.047026064 -0.20476376 -0.36307532
000140 26 55 7b be 72 e8 b6 be 5b 2f 96 bd c4 d2 a6 be
       -0.245442 -0.35724217 -0.07333251 -0.32582676
000150 2e ac 10 bf 96 d4 94 be 90 eb a0 be e3 66 1d be
       -0.56512725 -0.2906844 -0.3142972 -0.1537128
000160 79 0d 9f 3d 80 cc 92 be 0b 2d aa 3d ba 83 ad be
       0.077662416 -0.28671646 0.083093725 -0.33889562
000170 cc f9 b6 bd 52 ee c3 be b5 62 e7 be 59 ae 31 3d
       -0.08934364 -0.3826776 -0.45192495 0.04337916
000180 47 8b 33 be d7 03 9f be f2 67 cc be 44 ff d6 be
       -0.17533599 -0.31057617 -0.39923054 -0.41991627
000190 4d 10 54 be da b1 80 bd 77 65 9b be 00 fa eb bd
       -0.20709343 -0.062839225 -0.3035085 -0.11522293
0001a0 42 c4 7e be 66 59 cb be 31 de ec bd 71 28 55 be
       -0.24879554 -0.39716643 -0.11565817 -0.20816208
0001b0 ab 43 5d be ca 1c f8 be 4c e7 67 be 4d 3e 3c bd
       -0.21607845 -0.48459464 -0.22646827 -0.045957852
0001c0 6d 9b 0a be 89 8d 15 be 5e ea 44 be 2b 28 ab bd
       -0.13535853 -0.14604773 -0.19230029 -0.08357271
0001d0 cd 93 e1 bd a4 e9 35 be d1 3c 2f be 6e a8 d7 bd
       -0.11014519 -0.17764908 -0.17113043 -0.10530172
0001e0 1b 8b aa bd e4 d7 e1 be cd 23 bb be 6d 5e af bd
       -0.083273135 -0.44110024 -0.3655075 -0.08562932
0001f0 51 a4 8b bd be ca 4d be 83 65 e6 be dc 1e 07 bf
       -0.0681845 -0.20096871 -0.44999322 -0.5278146
000200 16 fb 49 3d 23 47 37 be af 3c 0f be 45 9f 5d be
       0.04931172 -0.1789823 -0.13987993 -0.21642788
000210 b0 17 d3 be 53 34 6f bc 88 8a 97 be 4f 33 5d bd
       -0.4122901 -0.014599877 -0.29597878 -0.05400401
000220 49 5e 09 be dc 9c 62 3d 8a ed 59 3e 98 40 84 3d
       -0.13414873 0.055325374 0.2128202 0.06457633
000230 48 9c 0a bd e1 29 73 3c 79 97 b7 be 03 a1 83 be
       -0.033840448 0.014841528 -0.35857752 -0.2570878
000240 3d fa 3f be 40 8e e5 bd d7 ea c3 be c5 1b 86 be
       -0.18747802 -0.11208773 -0.38265106 -0.2619306
000250 24 81 01 bf 18 44 c6 3d 3c ee d7 bd 40 ab d5 bd
       -0.5058768 0.096809566 -0.105434865 -0.10433054
000260 99 0a a6 3d 4d c6 30 be 6e be d7 bd 17 c3 45 3e
       0.0810749 -0.17263146 -0.105343685 0.19312702
000270 18 87 ca be 3e 53 ed bd dc 28 57 be dd ac fc 3d
       -0.39556193 -0.11588143 -0.2101168 0.123376586
000280 ad 01 a4 be 36 93 f0 be 17 26 59 3e 88 50 47 3a
       -0.3203253 -0.46987313 0.21205936 0.00076032476
000290 c2 6c 5e be 40 d1 61 be 45 e8 91 be 2e f6 11 bd
       -0.21721175 -0.22052479 -0.2849752 -0.035635166
0002a0 f9 8c 17 bf 95 8b 5f 3d 62 04 a3 be be 9d 9d be
       -0.5919948 0.054576475 -0.3183928 -0.3078441
0002b0 7f 47 2d be d3 f1 cd 3d a9 8a e2 3d 23 a8 ac be
       -0.16921805 0.1005589 0.110616036 -0.33722028
0002c0 20 73 fd be af 64 f7 be 85 4d 14 bf b6 2d 40 be
       -0.49501896 -0.48319003 -0.57930785 -0.18767437
0002d0 7c 3a 18 be 56 e4 16 be 7c f1 65 be 3b c2 06 be
       -0.1486606 -0.14735541 -0.224554 -0.1316003
0002e0 4b d4 18 be 32 b6 ba bd cf 6c 80 be c3 55 5a be
       -0.14924733 -0.09116782 -0.25083014 -0.21321778
0002f0 60 c8 f5 bd ca 88 55 bd df d9 af be 87 a6 b4 3c
       -0.12001109 -0.052132405 -0.3434591 0.022052063
000300 8f 96 cd be e1 3f 09 be 40 b7 6c be 39 51 0c bd
       -0.4015393 -0.13403274 -0.2311678 -0.034257147
000310 26 2f 62 3e 27 bc 8a be 9d 49 6d be ee bd ed bd
       0.22088298 -0.27096674 -0.23172612 -0.11608492
000320 a0 a2 be be 8a 17 19 be 7a 51 46 bb c3 d4 de bd
       -0.37233448 -0.14950386 -0.0030260966 -0.10880425
000330 dd 80 07 be 01 07 4a 3b a4 f4 76 be 76 cf 2f be
       -0.13232751 0.0030826929 -0.2411676 -0.17168984
000340 d2 2f 4a 3e 78 16 12 be de 3f ec 3d 15 e7 68 bd
       0.19744805 -0.14266384 0.11535619 -0.056861002
000350 34 3d 3b bd e8 9b 52 3c f7 35 ca be ce 1c bd 3d
       -0.045712665 0.012854554 -0.39494297 0.0923401
000360 90 c1 e5 bd 56 4f 97 be a3 7c 74 be 34 59 90 be
       -0.1121856 -0.29552716 -0.2387567 -0.28193057
000370 23 50 9c be 95 29 43 be 20 7d 20 be 4d fb ea 3d
       -0.3052989 -0.19058831 -0.15672731 0.11473713
000380 ea 82 a9 bd 1b 8c 6e be c9 bb 4a 3d b6 a5 f7 3d
       -0.08276923 -0.23295633 0.049495492 0.12092154
000390 ba ff bc 3d 52 22 a7 be 22 01 e8 bd 62 03 99 3e
       0.092284635 -0.32643372 -0.11328341 0.29885393
0003a0 74 54 fd bb 67 5b 52 be ec a8 d7 bc 54 f0 c3 bc
       -0.007731015 -0.2054268 -0.026325665 -0.023918308
0003b0 54 14 41 be 39 8f fb be e5 ea 9e be 8e ad 7d 3e
       -0.18855411 -0.49132708 -0.31038585 0.24773237
0003c0 13 38 4d be 57 32 73 be c8 ed 92 3d 4c 3b 25 be
       -0.20040922 -0.23749672 0.071742594 -0.16135901
0003d0 a6 1f d9 3c 9a 57 9c 3e 26 85 2f be 1d ba a3 3d
       0.026504349 0.30535585 -0.17140636 0.07994483
0003e0 c1 8f 81 3e 2f 1a 67 3d 35 cc 53 be df 6a a5 3d
       0.25304988 0.056421455 -0.20683368 0.08077025
0003f0 14 1d 91 3d 70 1b fa be 54 0f a4 3e 99 d4 1b be
       0.07085624 -0.48849058 0.32042944 -0.15217818

lstm.weight_ih_l1 f4 [512, 128]
000000 ef d2 76 be 79 4f 0a be 4c d4 c2 be 08 0e 1d 3d
       -0.24103902 -0.13506879 -0.38052595 0.03834346
000010 f9 0b 42 be 0f c5 1e 3f 94 e4 eb bd 18 23 d4 be
       -0.1894988 0.6201944 -0.11518207 -0.41433024
000020 42 99 99 3c 68 80 7b 3e 6d be 0a 3d ae 25 8b be
       0.018749837 0.24560702 0.03387301 -0.27177185
000030 a9 02 08 be 8c 38 8e 3c a6 7d 57 be 4a b9 48 bd
       -0.13282265 0.017360948 -0.21044025 -0.04900483
000040 40 79 0a bf 2b d2 2c 3e 17 8c 44 3f 94 80 54 bd
       -0.5409126 0.16877048 0.7677626 -0.051880434
000050 4d ec cb 3e 8b de 21 bf cf 6f 59 be 74 37 8c 3c
       0.3982872 -0.632302 -0.21234058 0.017116286
000060 d6 93 fc be 0e fa 6a 3e 8c 64 5e 3e 54 8a 22 bf
       -0.4933154 0.22946951 0.21718043 -0.6349232
000070 2f d3 d0 3e 68 53 8a 3e 72 26 66 bd 2e ca 81 be
       0.4078612 0.2701676 -0.056189008 -0.25349563
000080 fc 8b 79 be 2a bb 8c bd 76 64 bc 3e 2a b1 aa bc
       -0.24369806 -0.06871636 0.36795396 -0.020836432
000090 7b f7 66 bd ac b3 bc 3e 5f 73 e8 bd 4c 24 15 be
       -0.05638836 0.3685583 -0.1135013 -0.14564627
0000a0 cd e4 d4 bd 98 7e 90 3e 91 b4 3f be 37 4d 5c 3e
       -0.10395203 0.28221583 -0.18721224 0.2151383
0000b0 f5 67 6d 3d b1 4d 3a 3f 6d b5 14 bf 6b 4a 40 be
       0.05796047 0.727748 -0.58089334 -0.18778388
0000c0 ba 25 8e be 19 19 97 bd 9c 7e 25 be dd 2f 55 3e
       -0.27763158 -0.07377834 -0.16161579 0.2081904
0000d0 b4 9b b3 3e 99 c7 12 3d c4 fd 9c 3e 3d 3a 6a 3e
       0.3507973 0.035834882 0.30662358 0.22873779
0000e0 48 da 2b be ac 48 cf 3d 00 cb 26 be 2c d3 c9 3e
       -0.16782486 0.10121283 -0.16288376 0.39418924
0000f0 1d 49 c0 3d 7e 0e 5d 3e 9c ca d5 bd 0b 4d fa 3e
       0.09388945 0.2158756 -0.10439035 0.48886904
000100 b4 8a ef 3e 40 77 cf 3d 27 70 2b 3e 12 87 12 3e
       0.4678551 0.10130167 0.16742001 0.14309338
000110 70 0f f3 3e f7 d0 38 3e 72 21 35 bf 8e 36 aa be
       0.47472715 0.18048464 -0.7075416 -0.33244747
000120 68 58 83 be 3d f9 77 3e 80 4d 6e bd 71 be 33 3e
       -0.25653386 0.2421617 -0.05817938 0.17553116
000130 14 98 be bc 17 9a 9a be bb de 39 3d 66 15 ed 3c
       -0.023265876 -0.30195686 0.045378428 0.028940868
000140 3a d2 99 be 79 12 e0 3e 97 c0 d4 3d 7b 72 fa 3d
       -0.30043203 0.43764094 0.10388296 0.12228867
000150 62 72 04 3f 5b 3b ad 3c aa 22 9f be c8 b9 49 bd
       0.51737034 0.021146467 -0.31081134 -0.04924944
000160 46 85 16 bf ab 6f 86 3e 45 1d e5 bd a1 6f 2a be
       -0.5879711 0.2625707 -0.11187223 -0.16644146
000170 cc a6 b0 3e b9 4a 89 be 81 61 98 3e df 96 98 3e
       0.34502256 -0.2681482 0.2976189 0.29802606
000180 95 1e e0 be cf d5 08 bf 95 33 95 bd 57 86 73 3d
       -0.43773332 -0.53451246 -0.07285229 0.05945429
000190 a0 1a 55 be eb 78 a3 3e 00 7b ac 3d 64 c8 29 bd
       -0.20810938 0.3192819 0.08421898 -0.041450873
0001a0 78 60 63 3d d3 71 e3 3d 84 d7 16 be ce c4 d3 be
       0.05551192 0.111056946 -0.1473065 -0.41361088
0001b0 4b 45 25 3e 94 58 0f 3e 89 d5 f7 3d b9 76 de 3d
       0.16139714 0.13998634 0.121012755 0.10862488
0001c0 57 0e a5 3d d0 bb c1 3e 8b e5 c4 be 45 ed d2 3e
       0.08059376 0.37838602 -0.38456377 0.41196647
0001d0 4d d3 8f be 16 bf 78 3e c3 e0 51 be 43 ae 16 3d
       -0.28090897 0.24291644 -0.20495896 0.036787283
0001e0 e5 63 ff bd 6f 58 9f ba 2a 0a 7d bd 08 1a 0e bc
       -0.12470225 -0.0012157093 -0.06177727 -0.0086731985
0001f0 ac d2 1c bf f5 54 f5 3c ab e1 97 be fc 72 bf bd
       -0.6125896 0.029947737 -0.29664358 -0.093481034
000200 13 3a 4d be 32 80 41 3d c1 c5 53 bd 9f 6f 48 3e
       -0.20041685 0.047241397 -0.051702265 0.1957383
000210 85 82 c2 3e 0a bc 08 be 94 ce 13 bd b1 96 74 bd
       0.37990203 -0.13352981 -0.03608568 -0.059714023
000220 a2 3d 23 bf 0d 46 ff 3e 91 ce e3 bd 95 4a 6a 3e
       -0.6376592 0.49858132 -0.11123384 0.22880013
000230 71 d1 13 3e ab d2 0b 3e 2e 31 f9 3e f7 62 52 3e
       0.14435364 0.13654582 0.48670334 0.20545565
000240 fa a9 f2 be 44 99 36 be 8c 03 a8 be 88 ea 46 be
       -0.47395307 -0.17831904 -0.32815206 -0.19425404
000250 53 02 e4 bd 51 0f da 3e ab 26 9e bd 74 4b 99 3d
       -0.11133256 0.4258981 -0.07722219 0.07485095
000260 b9 0b 86 3e 0a 5d b3 3e bf 55 a4 be 28 e7 4a 3e
       0.2618082 0.3503192 -0.3209667 0.19814742
000270 06 e9 3e 3f 68 c3 a2 be cf 2f d8 3b b2 6d 45 3e
       0.74574316 -0.31789708 0.006597496 0.19280127
000280 26 d0 b2 be 26 d8 cc bd d1 fe 79 3c a3 8c e0 be
       -0.3492443 -0.100021645 0.015258507 -0.43857297
000290 db 74 58 be a1 89 a3 bd aa 8f 1a 3f b0 31 81 3e
       -0.21138327 -0.07985235 0.60375464 0.2523322
0002a0 ef fa bd 3e d5 28 b1 bd 63 08 eb 3d 5a 6b 02 be
       0.3710551 -0.08650366 0.11476209 -0.12736264
0002b0 bf 1a 9a 3e 9a a8 74 bf 8e 65 56 3d 6d fa e2 3d
       0.3009853 -0.95569766 0.052342944 0.11082921
0002c0 78 a5 99 be 41 07 4d be 2d be 53 be b6 d7 c0 bd
       -0.30009055 -0.20022298 -0.20678015 -0.094161436
0002d0 fb 50 23 3d 0b d8 9d 3e 3a 7b d4 3e 86 21 20 3e
       0.03987215 0.3082889 0.41500264 0.15637788
0002e0 45 90 b0 39 13 f8 6e be cc 7e a9 be 3d 4d fc 3d
       0.00033676825 -0.2333682 -0.3310455 0.123194195
0002f0 1c f7 28 be 4a ce 42 3e 8b 77 07 bd 57 94 04 3f
       -0.16500515 0.19024006 -0.03307299 0.5178885
000300 89 ad 82 3e 0a 6e bc 3e bd 5d 1a bd ca 77 58 3e
       0.25523022 0.36802703 -0.037687052 0.21139446
000310 8f 89 04 3f 39 cc d8 be 59 a3 10 be 0a e7 84 3e
       0.517724 -0.4234331 -0.14124812 0.2595752
000320 4b 64 06 3f 51 8b 50 bd b3 2d 48 be 1f e0 fe be
       0.52496785 -0.050914112 -0.19548683 -0.49780366
000330 e6 5a b2 bb 7c 4c a7 be cf 93 df bd 5a a5 66 be
       -0.005442965 -0.3267554 -0.10916864 -0.22524014
000340 32 0b 98 3e 67 3a 52 3d 68 4e 05 bd d4 73 42 be
       0.2969604 0.051325228 -0.032545477 -0.18989497
000350 8b ec 9e be ac 42 fc 3e a6 23 21 bf c1 36 73 3e
       -0.31039843 0.49269617 -0.6294502 0.23751356
000360 41 00 0d bf 78 07 d0 3e b8 70 ea 3c f2 c0 88 3e
       -0.5507851 0.40630698 0.028618202 0.26709706
000370 8d 34 ad be 08 43 06 3e fb 88 8b 3d e5 28 c4 3a
       -0.33829156 0.13111508 0.06813236 0.0014965801
000380 58 01 0f be 13 44 0a 3f fc 6e 8b 3e 92 3c 87 3e
       -0.13965356 0.54010123 0.27233112 0.264134
000390 3c 20 fa 3e 82 84 f0 bd 58 aa 9d bd 6a 97 9f bd
       0.48852718 -0.11744024 -0.07698506 -0.07792552
0003a0 0c f0 08 bd 5d 6d e9 be 4f 0b 16 3e 89 78 ef be
       -0.03343205 -0.4559125 0.14652751 -0.4677165
0003b0 d9 0e 89 3d b1 89 00 3c 71 ce ab 3e 56 23 26 bf
       0.06692285 0.007845328 0.3355594 -0.6489767
0003c0 a8 fe 9d be ea fe ea bd 46 e1 8f 3e 00 e1 1f 3d
       -0.3085835 -0.11474402 0.28101557 0.039032936
0003d0 b9 88 e6 3c a8 4d 67 be 50 46 a4 3e 26 ef 52 3e
       0.028141366 -0.22588217 0.32084894 0.2059904
0003e0 6a c1 3d 3e 24 53 78 bd 83 54 cd bd 64 7d 5e 3e
       0.18530813 -0.060626164 -0.10025885 0.2172752
0003f0 09 92 09 bf 36 a5 7e 3c 75 2f f5 3d 27 43 98 bd
       -0.53738457 0.015542319 0.11971942 -0.07434683

lstm.weight_hh_l1 f4 [512, 128]
000000 ba 68 17 be 9e ea 46 be ba be a5 3a bb d2 d3 bd
       -0.14786044 -0.19425437 0.0012645342 -0.10342928
000010 b0 00 b5 3d fa 1a da 3e 0b 7f c2 bd 8a 3a 8b be
       0.08838022 0.42598706 -0.09496888 -0.271931
000020 a0 98 5d be 37 4f 57 3e 64 ff 3a 3e 86 4d 85 bd
       -0.21640253 0.21026312 0.18261486 -0.06508927
000030 ca 94 02 be 42 b1 1a 3f 43 b1 be be 3e 58 61 ba
       -0.12752071 0.60426724 -0.37244615 -0.0008596218
000040 55 2b 7f 3d 08 2c fc bc 20 a0 b1 be 2f 2a ce be
       0.062297184 -0.030782714 -0.34692478 -0.4026656
000050 f9 77 83 be 5e 22 b9 3d 89 3a d0 be 9d d1 83 be
       -0.2567747 0.09039758 -0.4066966 -0.2574586
000060 64 13 49 be e8 1f 9a bd f1 0d d8 3d 3e bd cf 3e
       -0.19636303 -0.07525617 0.10549534 0.40574068
000070 82 34 b2 3d be 9e 94 3e 60 ec 97 3e bc 6c 9d 3c
       0.08701421 0.2902736 0.29672527 0.019216888
000080 1b d5 c0 be bf fa 16 3e 4a ff 1a bc d2 31 0e be
       -0.37662587 0.1474409 -0.00946028 -0.13886192
000090 47 14 22 bd 24 38 d8 bd 14 c8 82 be e2 d8 72 be
       -0.03957012 -0.10557583 -0.25543272 -0.23715547
0000a0 0d 4f d9 3e 24 7a 4f be 45 da 25 3d f8 e1 24 3e
       0.42443123 -0.20261437 0.04049136 0.16101825
0000b0 54 16 8e 3d 77 5c 88 bd f7 77 2b be ad 7d 9e 3e
       0.069378525 -0.06658261 -0.16744982 0.30955258
0000c0 5a 33 46 3e 09 9c a7 3e 2d e5 f4 3e 8f 1e bf be
       0.19355527 0.32736233 0.47831097 -0.37328002
0000d0 07 c6 1a 3e 7c bd 9b be ab 44 a2 3b 66 c3 6a be
       0.15114604 -0.30418003 0.0049520335 -0.22926101
0000e0 e7 68 06 be c6 7f 77 bd 7e ee bc bd 5e 5b 0f be
       -0.13125955 -0.06042459 -0.09225176 -0.13999698
0000f0 a5 da a6 3c 86 bf c9 be 3a 8d 09 3e 54 d0 89 bc
       0.02036793 -0.39403933 0.1343278 -0.016822971
000100 4b 7e 89 3e 80 49 07 be e1 a4 cd 3e c0 2c 6e bd
       0.26854166 -0.13211632 0.40164855 -0.058148146
000110 82 ae fc 3c 69 60 d9 3d 8b 64 7f bd e8 eb 8f be
       0.03084493 0.10614092 -0.062351745 -0.2810967
000120 86 c2 92 be a2 72 b6 bd 09 7d 6e be 0d 11 94 3c
       -0.28664035 -0.08908583 -0.23289885 0.018074537
000130 2e d3 d3 be 56 38 cf bd 41 8a f4 3c 4f c1 36 3e
       -0.41372055 -0.10118167 0.02985108 0.17847179
000140 21 07 7c bc 04 7a 69 be b6 35 04 be a9 94 a4 bb
       -0.015382559 -0.22800452 -0.12911114 -0.0050226045
000150 ff 9f ed 3c 27 55 f0 3d bd 88 28 3e a9 61 b7 3e
       0.029006956 0.117349915 0.16458412 0.35816696
000160 31 71 4c 3e 3a 20 f7 bd 6c 9c 11 be 55 d1 83 bd
       0.19965054 -0.120666936 -0.14219826 -0.06436411
000170 81 85 93 be 10 dd ee 3d b2 07 12 3e a2 42 7c 3d
       -0.28812793 0.11663258 0.14260748 0.061586984
000180 ce 10 73 be 4e 03 44 3d 87 a9 fb be ea 43 8c 3e
       -0.23736879 0.047854714 -0.49152777 0.27395564
000190 df c1 13 be d3 fc 17 bf c3 d5 da be 53 f6 27 be
       -0.14429425 -0.59370154 -0.42741212 -0.16402559
0001a0 13 c0 e8 ba ed f7 ae 3d 02 9d 27 bd df e6 18 bc
       -0.0017757438 0.08543382 -0.04092122 -0.009332388
0001b0 47 0a eb 3d 61 2c 28 bf 54 24 08 3e 08 ee 28 be
       0.114765696 -0.65692717 0.13295108 -0.16497052
0001c0 3f 63 91 bc db 13 99 be 47 9f c7 3e 5e 69 5f 3d
       -0.01774752 -0.2989796 0.38988706 0.054543845
0001d0 77 d1 f1 bd 1d 3c 61 bd 02 1a 34 3e 15 ca 89 bd
       -0.118075304 -0.05498897 0.17588046 -0.06727997
0001e0 a1 cf c6 bc 97 c2 c0 be 49 4b 25 bd 7e eb 0a 3f
       -0.024268927 -0.3764846 -0.040355 0.5426558
0001f0 94 7e c1 3d 0e d7 0c be 65 ac 87 3e 31 cd e3 bd
       0.09447971 -0.13753912 0.26498714 -0.111231215
000200 ca 4a 0b 3e 53 bc 4c be f7 d0 55 bd 49 cb e7 be
       0.13602749 -0.19993715 -0.052201238 -0.45272282
000210 39 22 03 3e 6c fd 02 3e 97 98 43 be dc 6e 67 3e
       0.12806024 0.12791985 -0.19101177 0.22600883
000220 ce b8 02 3d 64 5b 3f be f4 05 54 bc 58 c7 81 3e
       0.031914525 -0.18687207 -0.012940872 0.253474
000230 3b 35 4b 3e 66 de a2 be ef ab 7e be d7 56 7e 3d
       0.19844525 -0.31810302 -0.24870275 0.062094536
000240 d2 5d 9d 3e 00 fe 15 be 8f e2 86 bd 29 54 01 be
       0.30735642 -0.14647675 -0.06586181 -0.12629761
000250 ad d3 2d 3e ed 9d 17 be e7 98 55 3c 6e 83 83 3e
       0.16975279 -0.14806338 0.013036943 0.2568621
000260 f9 ec d5 be a2 2d a6 3e fe bf 84 3d 2d 52 25 bd
       -0.41782358 0.3245669 0.06481932 -0.040361572
000270 31 30 2e be ee 75 26 3e d7 82 5b 3e 9e cb e8 3d
       -0.17010571 0.16255924 0.2143663 0.11366962
000280 fe 45 eb 3c aa 61 7e 3e 22 55 be bd 06 6b 46 3e
       0.028719898 0.24841943 -0.092935815 0.19376764
000290 c3 dc 50 3e df 1d a5 bd 76 35 1b bd b4 9c a2 3d
       0.20396714 -0.08062338 -0.03789278 0.07940045
0002a0 f9 e6 3d 3e db 0c 28 3e 5f c2 49 3e 65 82 99 3e
       0.1854514 0.16411154 0.19703053 0.29982296
0002b0 7c fc 9e bc 06 07 7c be ec fc a1 3d 4d 01 3d bb
       -0.019407503 -0.24612054 0.07909569 -0.0028839887
0002c0 78 80 01 3c 5f 24 23 be eb 76 57 3d d5 e8 1f 3e
       0.0079041645 -0.15931843 0.052603643 0.15616162
0002d0 bd 6a 2a 3c ca ad a2 ba ad 4c 71 bd b3 de 72 bd
       0.010401425 -0.0012411412 -0.058911014 -0.059294414
0002e0 f1 cd ba 3d 99 d4 71 3e 6d 0c 71 bd ba 1d 37 be
       0.091213115 0.23616256 -0.05884974 -0.17882434
0002f0 c8 4a 2a be 04 96 2c be 26 4b a8 3c b7 73 e6 be
       -0.1663009 -0.16854101 0.020543646 -0.45010158
000300 78 22 2a bd 60 5c b5 bd 7e 44 7c be 5a b5 67 bd
       -0.04153678 -0.0885551 -0.24635503 -0.056569435
000310 39 a1 9c 3e 3c c4 a4 bd ae fc 4a bd 2c ea 90 3e
       0.30591753 -0.08045241 -0.04955738 0.2830366
000320 ca 90 8a 3d 28 e5 a5 3e 69 36 94 bd ac f3 9b 3b
       0.067658976 0.32401395 -0.072369404 0.0047592726
000330 a5 a4 a8 be c8 08 6f 3c aa c3 b4 be d0 71 03 be
       -0.32938114 0.014589496 -0.3530553 -0.12836385
000340 ff d0 df 3d ed a8 c2 be 48 29 45 3e 0e 9e 74 3e
       0.10928535 -0.38019505 0.19254029 0.23888418
000350 fe 7b 07 3f 41 44 cd be f3 c8 83 be a9 53 cd 3b
       0.5292357 -0.40091136 -0.2573925 0.0062660766
000360 f1 b3 4f 3e 9c b1 2e bc 25 9c 34 bd ff 0c b7 be
       0.20283486 -0.010662463 -0.044094224 -0.35752103
000370 a4 3c f7 3e 60 6a b7 3e 2e 82 cf 3d c4 a6 67 3d
       0.48288453 0.35823345 0.10132252 0.056555524
000380 7e 49 dc be 9a 37 c0 be 00 77 75 bd 94 00 f9 3d
       -0.4302482 -0.3754242 -0.05992794 0.121583134
000390 33 66 dc bd ac 56 4b 3d ca b8 a6 3e 3f 7e 96 3d
       -0.107616805 0.049643204 0.32562858 0.07348298
0003a0 4b e3 6c bd 47 22 fc 3d ff d7 87 be 60 2f 27 be
       -0.05783395 0.123112254 -0.2653198 -0.16326666
0003b0 1f 66 42 be dd 17 af 3d 10 cc 72 3d a0 2f 73 3e
       -0.18984269 0.085494734 0.05927664 0.23748636
0003c0 e2 15 03 3e 82 0f b6 be fd 8e 5c 3c 7b e8 9f 3d
       0.12801316 -0.35558707 0.013461825 0.07808014
0003d0 9b 2d 0b 3e fc d0 f0 3e e6 05 09 be ca a5 ab be
       0.13591616 0.47034442 -0.13381156 -0.33524925
0003e0 19 97 d3 be f6 71 d1 bd cc c4 df 3e fd 87 85 3d
       -0.41326216 -0.102268144 0.43704832 0.06520078
0003f0 81 03 6a 3c bb 25 17 bf 25 4b cc bd fe f1 89 bd
       0.014283062 -0.5904195 -0.0997527 -0.067356095

lstm.bias_ih_l1 f4 [512]
000000 2c 2f e2 be d8 7a 99 be 9b 12 4d be 6a 3f 40 3e
       -0.44176614 -0.29976535 -0.20026629 0.1877419
000010 b2 0c 07 bf 99 f0 3c be a8 1b e9 be d3 a3 82 be
       -0.52753747 -0.18451156 -0.45528913 -0.25515613
000020 04 82 64 3e 52 18 cc be 91 06 da be 99 d9 07 bf
       0.22315222 -0.39862305 -0.42583135 -0.530664
000030 00 57 04 3e 67 87 2e be 46 cd f2 be 45 84 8f bd
       0.12923813 -0.1704384 -0.47422236 -0.0700765
000040 77 4a d2 be ad 6f e0 bd ee d8 a0 be ab cb 36 bf
       -0.41072437 -0.109588005 -0.31415504 -0.7140452
000050 7a 90 19 be 51 3a ff bd f2 f7 1f 3e fa 75 8c be
       -0.1499652 -0.12462295 0.15621927 -0.2743376
000060 b7 43 8e bd 55 bb 13 be 95 b2 e0 bd 93 e3 80 be
       -0.06946509 -0.1442693 -0.10971562 -0.25173625
000070 e7 99 85 be 37 f0 80 bd b6 91 15 bf 30 0f 34 be
       -0.2609398 -0.06295817 -0.5842546 -0.17583919
000080 15 11 94 be bf 54 31 be bf 64 d0 3c ac fe 72 be
       -0.28919283 -0.17317484 0.025438664 -0.23729962
000090 5e 78 dd be 7a 33 8b be 50 f0 15 be cb 77 c8 be
       -0.43255895 -0.2718771 -0.14642453 -0.39153895
0000a0 08 d2 fd be 24 55 94 be 7b 48 00 be 13 8a 3e bf
       -0.49574304 -0.28971207 -0.12527649 -0.74429435
0000b0 28 ec 07 bf d4 46 d8 be 4a 1a ed be 4e 9a c4 be
       -0.5309472 -0.42241538 -0.4630912 -0.38398975
0000c0 c5 f1 03 bf a0 34 0e bf fb 10 46 be d9 19 a3 be
       -0.51540786 -0.5554905 -0.19342415 -0.31855658
0000d0 9c 5c c5 bd 29 21 9f be 0c 53 b4 be 3c df 0a bf
       -0.096368045 -0.31079987 -0.3521961 -0.5424688
0000e0 40 ae cd bd 56 d3 e9 be b7 e6 2f be 32 39 c4 be
       -0.10043001 -0.4566905 -0.17177854 -0.38324887
0000f0 1b 2f 77 3e 64 41 0c bf 41 3e d9 be 79 94 2b bd
       0.24139063 -0.5478728 -0.42430308 -0.04188964
000100 fb 50 8a be 32 b8 1a bf 10 2a d7 be 7c 51 16 bf
       -0.27014908 -0.6043731 -0.4202428 -0.58718085
000110 f9 f9 d5 be f4 21 a0 3e 14 ea e6 be 7d 1a 88 be
       -0.41792277 0.31275904 -0.45100462 -0.2658271
000120 55 5e 5d 3d b8 a2 cb bb 59 e5 78 be 24 53 c5 be
       0.05404504 -0.006214466 -0.24306239 -0.38539994
000130 f9 75 51 be aa 1e 1c be 81 b2 0d bf e4 6d 28 be
       -0.20455159 -0.15246072 -0.553505 -0.1644817
000140 37 bc a8 bd c9 84 82 bf 55 55 39 bf 05 6b 3e bf
       -0.08239024 -1.0196773 -0.7239583 -0.7438205
000150 81 98 e9 be 7a 73 ae be 8a 29 d9 be 88 1b d2 be
       -0.45624164 -0.34072477 -0.42414504 -0.4103663
000160 3b d2 dd be a7 0b 6f bf 3c fd b5 be f1 06 96 be
       -0.43324456 -0.93377155 -0.35544765 -0.2930217
000170 a0 f5 03 be 58 8c 26 bf 6a f0 1e bf f1 ff e1 be
       -0.12886667 -0.650579 -0.6208559 -0.4414058
000180 41 82 f7 be 94 ab 4c bb 37 6c 3a be 1b 52 72 be
       -0.48341563 -0.0031230198 -0.18205343 -0.23664133
000190 f2 46 1d bf f5 b0 66 ba a9 ae ea bd 68 dc 52 bc
       -0.6143638 -0.00088001724 -0.11459095 -0.012869932
0001a0 c8 4b 87 be fd 5d 1d be 4b a1 2f bd e9 14 10 bf
       -0.26425004 -0.15367885 -0.04287843 -0.56281906
0001b0 ea 37 cd be 69 c7 32 be 62 5c 08 bf 64 60 c2 be
       -0.40081722 -0.17458881 -0.53265965 -0.37964165
0001c0 c3 ae 7f bc 7c d3 f0 be 3f 18 03 be 10 01 81 be
       -0.015605631 -0.4703635 -0.12802218 -0.25196123
0001d0 9e 96 6c bf b2 92 a1 be 12 52 92 be e7 7f b9 be
       -0.92417324 -0.31557232 -0.2857824 -0.36230394
0001e0 ed 6e 37 be 3f 69 46 be 62 f6 f0 bd 0b 06 27 be
       -0.17913409 -0.19376086 -0.11765744 -0.16310899
0001f0 3c a0 e1 be aa 3d be be e8 23 26 bf 1c cd a0 be
       -0.44067562 -0.3715642 -0.6489854 -0.31406486
000200 d3 e5 ac be 77 dc 8f bd 97 68 94 3a 89 37 33 3f
       -0.33769092 -0.07024472 0.0011322674 0.70006615
000210 96 56 13 be e7 7f 37 be e6 e9 c7 3e 8d f0 a9 3d
       -0.14388499 -0.17919885 0.39045638 0.082978345
000220 db f7 57 bd ef 1a df 3e 38 ce 3a 3e 47 bc b0 be
       -0.052726608 0.43575236 0.18242729 -0.34518644
000230 31 2a 21 3e b9 74 46 bd 19 9b df bd f9 bd 86 3d
       0.15738751 -0.04845116 -0.109182544 0.06579203
000240 d5 0f a7 3e 36 2f bc 3c 58 75 93 3d 4d bf 13 3f
       0.32629266 0.02297173 0.07200116 0.57713777
000250 7b c6 8a bd 5f 19 7b 3e c3 e2 9b 3e ab d3 22 3e
       -0.067761384 0.24521397 0.30446443 0.15901057
000260 b7 03 60 3e e3 55 ec 3d 93 2a fb 3d 7a 94 ae 3b
       0.21876417 0.11539819 0.1226398 0.0053277584
000270 b8 c6 b7 3d 5a 83 e6 3e ae b3 b9 be 40 33 c8 be
       0.089734495 0.45022088 -0.36269897 -0.391016
000280 cf 0f 27 be 06 92 82 bd ee 96 2a 3e 31 70 e3 bd
       -0.16314624 -0.06375508 0.16659138 -0.11105383
000290 ca a6 35 be 7f cf 19 3d 70 17 78 bd 4d e4 73 3c
       -0.17739406 0.0375514 -0.060569227 0.014885974
0002a0 67 eb 38 3d 52 f6 dd 3e 8d 1b 06 3f d6 64 9c 3d
       0.045146372 0.4335199 0.5238579 0.076364204
0002b0 34 26 08 3f d3 09 04 3d 02 76 b0 3d d4 2d fd be
       0.53183293 0.03223593 0.08616258 -0.49449027
0002c0 9c 93 d8 be 13 4a a2 3e 83 02 47 be 4c 9d d2 3e
       -0.42300117 0.3169714 -0.19434552 0.41135633
0002d0 60 6c 8c 3e 21 16 11 3e bc c6 e5 bc 19 e0 cb be
       0.27426434 0.14168598 -0.028048865 -0.3981941
0002e0 7e 9c 3f be 82 c7 fb ba a6 11 8f 3e 0d 47 e4 3c
       -0.18712041 -0.0019209238 0.27943152 0.02786591
0002f0 15 b7 41 bd 20 7f 98 be 37 2a 16 be 9b 26 0c 3e
       -0.04729374 -0.2978449 -0.14664541 0.13686602
000300 36 d4 ef 3e 81 7f 97 bd 55 1c af be 26 79 b1 bd
       0.46841592 -0.07397366 -0.34201303 -0.08665685
000310 88 2e 61 3e 08 51 6f 3e ea 80 81 3d e8 18 85 be
       0.21990407 0.23370755 0.063234165 -0.25995564
000320 49 ba 12 bc 18 eb 1a 3e 7d 33 7c 3d 4d 87 e8 3d
       -0.008955547 0.15128744 0.06157254 0.113539316
000330 4e 27 fc bd fe 9f eb 3d 86 09 d4 3e da f2 09 3e
       -0.12312184 0.115051255 0.41413516 0.13471547
000340 88 3d ad 3e 02 09 14 3f 91 3b 5f 3e 62 3e 83 3c
       0.33836007 0.57826245 0.21800067 0.016020957
000350 dc b8 a5 be 84 07 c6 3d 35 d7 60 3d ce 35 9a be
       -0.323676 0.09669402 0.054892737 -0.30119175
000360 38 1d e1 3e fe f5 63 3f 69 1d a2 3e 19 2c 6a 3b
       0.43967605 0.8904723 0.31663063 0.003573185
000370 82 3b d2 bc c8 c7 0a bd be b4 81 be 03 16 05 bd
       -0.025663141 -0.033881932 -0.25333208 -0.032491695
000380 06 52 80 3e c0 ee 28 3e e2 ad 42 3e be 37 05 be
       0.2506258 0.16497326 0.19011644 -0.13009545
000390 45 ae 9f bd 00 21 97 3c ed c8 15 be 29 5b 15 3f
       -0.07796911 0.018448353 -0.14627428 0.58342224
0003a0 de 64 d0 3d 82 eb a0 3d 9c 83 42 3e 82 06 13 3e
       0.10175489 0.078574196 0.18995517 0.14357951
0003b0 d1 9b b7 bd e9 2c 11 3e 70 c9 80 be 02 8c 02 bd
       -0.089652665 0.14177288 -0.25153685 -0.031871803
0003c0 86 91 5a 3e 28 c2 bf bd 3f 35 2d be b1 61 6d 3e
       0.21344575 -0.09363204 -0.16914843 0.23181798
0003d0 b0 fa 2f 3f fe 05 13 3e 34 c9 b0 bd c1 77 8f bc
       0.68741894 0.14357755 -0.086321265 -0.017513158
0003e0 22 8b f1 3c ee 9d a8 be ae 8a e2 bb 23 fd d1 3d
       0.029485289 -0.3293299 -0.0069135046 0.1025336
0003f0 c6 8f 8f be a5 1e dc 3d d3 be 08 3e c9 2b 91 bb
       -0.28039378 0.107480325 0.13354044 -0.0044302684
